ddqn_checkpoint.pth (torch, 55851 bytes, 6 tensors)

fc1.weight f4 [128, 37]
000000 a5 19 47 3d 9f 93 92 3c 5f 0a 39 3b e8 cf 0b bf
       0.04860844 0.017892657 0.0028234941 -0.54614115
000010 9c fb bb be 6c 8a 48 3e 04 a6 a4 bd 3e 5d d8 3d
       -0.367154 0.19584054 -0.080394775 0.105646595
000020 3c 49 d4 be 79 a2 ea 3e 07 c6 3f 3d 89 6d a7 3d
       -0.41462123 0.45827082 0.046819713 0.08175189
000030 f3 84 85 bd ba f9 0e bf 49 ad 18 bf a7 ab a2 be
       -0.06519499 -0.558498 -0.5963941 -0.31771585
000040 bc 29 2c be a0 b5 0a 3f 1c e0 bd bd fc 76 47 3e
       -0.16812795 0.5418339 -0.09271261 0.19478983
000050 16 ff b0 bc 59 1b 1a 3e e5 e5 eb 3c df 39 39 3d
       -0.02160601 0.15049495 0.028796146 0.045221206
000060 67 06 c8 be 39 b8 09 be d5 2d 98 3e 62 b0 90 3d
       -0.39067385 -0.13449182 0.29722467 0.07064892
000070 b3 31 74 bf 4e b7 82 3e 84 a7 72 3c 65 37 4e 3c
       -0.95388335 0.25530475 0.014810447 0.012586449
000080 c1 1a 8a ba 48 9a a4 bc f7 4a 1a be 97 12 98 bd
       -0.0010536538 -0.020093098 -0.1506766 -0.07425421
000090 26 78 e9 bc 97 af 0c 3f 1f 6e 0e 3e aa 9d 09 bf
       -0.028499674 0.5495543 0.13909195 -0.537562
0000a0 ef bd 38 be 81 79 9b bf 34 07 b4 3d 00 b8 a3 be
       -0.18041204 -1.2146455 0.087904364 -0.31976318
0000b0 b8 fc c4 bc 84 30 fc bb fe 16 0a bc fc 4c 5e be
       -0.024046287 -0.007696213 -0.008428333 -0.21709055
0000c0 ea 38 eb 3d aa 75 c5 bd 66 5e c0 3e 61 4a a9 3d
       0.11485465 -0.09641583 0.3757202 0.0826614
0000d0 5b 17 38 3c b8 33 5e 3e e4 60 c5 3d c0 01 f5 bd
       0.011236037 0.21699417 0.09637621 -0.119632244
0000e0 2a 98 1c be 51 86 3a bd d4 15 b9 be 29 02 0a 3e
       -0.15292421 -0.04553825 -0.36149466 0.13477387
0000f0 d9 9d a8 3d 1d dc 43 3e dd b3 1f bd b9 8d 0b bd
       0.08233232 0.19126935 -0.03898989 -0.034070704
000100 79 03 c4 3d 32 c3 28 3e 87 92 3c bd bd 6c 89 3e
       0.09570975 0.16480711 -0.046038177 0.26840773
000110 dd 2c e0 bd 19 7f 1e 3e 56 b6 02 be a0 03 77 be
       -0.10946057 0.15478171 -0.12764868 -0.24122477
000120 16 8a af bc 52 c5 03 bd 1a 6a 2f 3e 5f 62 61 3e
       -0.02142815 -0.0321706 0.17130318 0.22010182
000130 ea 7f 37 3e fa 73 c5 be 34 9c d0 be b5 0a 5d bf
       0.17919889 -0.38565046 -0.40744174 -0.8634446
000140 6f 34 2d bf fe 83 9a 3e f4 e3 6b be 31 36 0a bf
       -0.6765813 0.30178827 -0.23036176 -0.5398894
000150 1c fb b5 3b 07 02 37 3e 6a e7 80 be cb 0a 84 be
       0.005553616 0.17871867 -0.25176555 -0.25789484
000160 df f3 02 be 2c 0a d1 3d 58 c1 f0 be 91 e1 33 3e
       -0.12788342 0.10207018 -0.4702251 0.17566516
000170 48 96 7a be b8 e7 3c be 75 96 0c bf b0 c8 54 bc
       -0.2447139 -0.18447769 -0.5491708 -0.012987301
000180 bf 69 95 3e 1f 11 e3 be 26 49 20 bf 47 4b 9d be
       0.2918224 -0.44349 -0.62611616 -0.30721495
000190 9c 09 94 3e 06 5e 3f 3e ae ea 0d bf 40 35 a1 3d
       0.2891358 0.18688211 -0.5543622 0.07871485
0001a0 97 28 19 be 5e b4 b4 bd 72 0d d5 bd 99 37 86 be
       -0.1495689 -0.08823465 -0.10402955 -0.26214293
0001b0 ae de 82 bd c4 e1 8e 3d 89 a4 a8 bd e0 fd f5 3e
       -0.06390129 0.06976655 -0.082345076 0.48045254
0001c0 ba 14 73 bf fa f1 e8 be 1c e7 32 be 60 e5 10 c0
       -0.949535 -0.45497113 -0.17470974 -2.264
0001d0 f9 d0 d7 bd 0f d2 73 3d 76 fd a6 3d 96 8f e5 3d
       -0.10537905 0.0595265 0.081538126 0.112090275
0001e0 f6 7b 35 3e 01 0e 9d 3d c3 b8 2f bd e5 31 aa bc
       0.17723069 0.07668687 -0.042900812 -0.020775745
0001f0 f7 48 b7 bd 0d 8c 95 bd fb f5 4a be ba 9c 63 bd
       -0.08949464 -0.07302103 -0.19820397 -0.055569388
000200 60 15 b0 3c e4 b3 80 bd 1e f0 46 3d a7 5e 1f be
       0.021494567 -0.062843114 0.048568837 -0.15563451
000210 b6 fc 57 b8 7e b2 45 3d 93 a2 04 3e 75 c0 6f 3c
       -5.149535e-05 0.048265927 0.12952642 0.014633288
000220 2e 61 10 be 46 d6 92 bd 7b d8 e4 3d 11 75 89 3e
       -0.14099571 -0.07169776 0.11174103 0.26847127
000230 81 f8 41 3e 7d 3e 5a bc b6 6b 1a 3e fd 35 70 3e
       0.18942453 -0.013320562 0.15080151 0.23458095
000240 6b 00 89 3c d1 ee 05 3d fd 9e f6 bd d2 2e dd 3c
       0.016723832 0.032698456 -0.12042043 0.026999865
000250 46 04 48 be f1 76 83 be 21 e7 eb bc 0e f1 b2 bd
       -0.1953288 -0.25676683 -0.028796734 -0.08737384
000260 5c 13 3a be 31 a0 93 be 09 31 f4 bd e0 40 38 3e
       -0.18171448 -0.28833154 -0.11923415 0.17993498
000270 ee 7f df 3e ee b7 01 3f e7 28 f4 3b b0 b3 a8 bd
       0.4365229 0.5067128 0.007451165 -0.08237398
000280 d0 f6 bb 3d 8e 24 ca be f5 66 33 be a3 96 ca be
       0.09177935 -0.39481014 -0.17519744 -0.39568052
000290 4c 1f d6 3c 96 87 8a 3d b5 2c 71 3d 3c 0d 9c 3e
       0.02613797 0.06764142 0.058880527 0.30478847
0002a0 4f b5 89 be 79 4b 4e bc 4d a6 1c 3e 85 5c 3a 3e
       -0.2689614 -0.012591236 0.15297814 0.18199356
0002b0 57 f4 bd 3e ca c6 de 3d d3 55 84 bd 50 b6 6d bd
       0.3710048 0.1087776 -0.06461682 -0.058035195
0002c0 5d c3 92 bb 05 b0 b3 be 12 ac 1f be fe ba 7c 3e
       -0.0044788555 -0.3509523 -0.15592983 0.24680707
0002d0 63 9b d0 3c 16 64 22 be e5 da 09 3f b0 9c 8c 3c
       0.02546472 -0.15858492 0.5384963 0.017164558
0002e0 ab aa ad bc d2 91 8b 3c 30 99 b6 3d a8 e7 09 3e
       -0.021199545 0.017037306 0.08915937 0.13467276
0002f0 af ff c2 bc 8d 1f 89 3d dc b8 02 3f 01 92 88 bf
       -0.02380356 0.06695471 0.51063323 -1.0669557
000300 60 f0 c2 be d4 49 24 bf 68 60 0d c0 fa 59 b6 3c
       -0.38074017 -0.6417515 -2.2090092 0.022259701
000310 e7 36 8f 3d 07 02 8d 3d d3 85 17 bc 5c 78 29 3e
       0.06992894 0.06885152 -0.009248215 0.1654982
000320 e2 bd fe 3c ac 33 40 3e 7d bc 4f 3d 5a b6 cc bd
       0.031096403 0.18769711 0.050716866 -0.09995718
000330 4d 3f c8 3d 3d e2 1c 3e 6b 5c 39 3e fb cb 19 3e
       0.09777699 0.15320678 0.18101661 0.15019219
000340 6d 0f 42 3e 72 3b 8c 3d ab 49 7e 3e 76 fe 30 be
       0.18951197 0.06847276 0.2483279 -0.17284569
000350 ea 88 c1 3c 6b b2 b2 3d 22 ff 6f bd 32 ed 67 3e
       0.023624856 0.08725437 -0.058592923 0.22649077
000360 ad 4d ad bd 10 92 87 bd 57 1e 80 3e ac 2b de bc
       -0.08462081 -0.06619656 0.25023147 -0.027120434
000370 65 86 75 3d ee 9c 26 3d ca 40 73 3d b2 58 a6 3e
       0.05994262 0.040677004 0.05938796 0.32489544
000380 36 b7 90 be 3b 29 8a be e6 cf 09 bf 53 3e 02 be
       -0.2826478 -0.2698458 -0.5383285 -0.12719087
000390 d9 b0 2c be f4 e7 9d 3d d9 35 05 3e 4b e8 e6 bc
       -0.16864337 0.07710257 0.13008823 -0.028186938
0003a0 4b b9 2c 3e a3 5d 42 be 30 fa c7 3e 7a 04 e4 be
       0.16867559 -0.18981032 0.39058065 -0.44534665
0003b0 8d 5a 3a 3e 18 6c 12 3e 90 25 11 bf b0 22 df 3d
       0.18198605 0.14299047 -0.5669794 0.10895288
0003c0 51 19 3c 3e e3 7e f0 bd ff 89 12 be 78 85 5d 3d
       0.18369032 -0.11742952 -0.14310454 0.054082364
0003d0 2a 1f a8 3c bc 44 a3 3d ff fd 57 bd c5 de 3f be
       0.020522673 0.079720944 -0.052732464 -0.18737324
0003e0 0f 57 87 3d fe 54 2f 3e f6 a3 9e be 93 2e fa 3c
       0.06608402 0.17122266 -0.30984467 0.030539786
0003f0 dd bb 9a bd a5 cb a6 3e c9 97 fe be 05 82 19 3e
       -0.07555363 0.32577243 -0.49725178 0.14991005

fc1.bias f4 [128]
000000 b1 94 ad bd b0 f3 63 3d df 4b 50 be 49 dd b6 bd
       -0.08475626 0.05565232 -0.20341443 -0.089289255
000010 c6 9d b5 bb d8 13 99 3d 16 6f a4 3d 07 e1 fc 3b
       -0.0055424897 0.07474488 0.080290005 0.007717255
000020 f3 95 2c be f6 57 5e bd fe ee e0 bd e6 9a b4 3d
       -0.16854076 -0.054283105 -0.10983084 0.08818607
000030 9f aa fd bd 31 20 5e bd 2a 65 c7 3c 3c 81 9c 3c
       -0.12386059 -0.05422992 0.024340231 0.019104593
000040 84 f4 1b 3d 79 f7 db 3d ae 5f 2b be 8d 50 d0 bb
       0.038074985 0.10740561 -0.16735718 -0.0063572587
000050 c4 15 86 be 5b 52 84 3d fe 02 d8 3c 1d 73 8d 3c
       -0.2618848 0.064610206 0.026368614 0.017266804
000060 d4 ef 22 3e 2f cc 58 3e d9 bb 0e 3e da 3b 69 3d
       0.159118 0.2117164 0.13938846 0.056941845
000070 86 b6 35 3d f6 a9 95 bd 73 ca 7b 3c a6 38 37 bc
       0.04436352 -0.07307808 0.015368092 -0.01118294
000080 4f d1 bd bd 78 2a 09 3d 3b b6 37 bb 43 77 5b be
       -0.09268438 0.033487767 -0.0028032202 -0.21432213
000090 72 29 09 bd cc ed 85 3d 67 17 38 bd 66 2e b8 3d
       -0.03348679 0.06539497 -0.044944193 0.08993225
0000a0 3a 20 e7 bd a3 7c b9 3c 92 e8 84 3e 5d 21 73 3e
       -0.112854436 0.02264244 0.25958687 0.23743196
0000b0 88 a0 bd 3d 38 2c fb bd 8d 8a 21 bc 24 41 b1 bd
       0.092591345 -0.122642934 -0.009859693 -0.08655003
0000c0 12 2c 23 be cc d7 e0 bb 1b 93 7d bc 9e ec 30 3e
       -0.1593478 -0.0068616625 -0.015476967 0.17277762
0000d0 c3 ba 15 3e d4 e6 94 bd b3 1b a7 3e a1 12 af 3e
       0.14622025 -0.072705895 0.3263832 0.341939
0000e0 92 f9 f1 3d 45 3a 1a be a6 4b f9 bd 0d ec ee bd
       0.1181518 -0.1506129 -0.12172632 -0.11666117
0000f0 4d a0 14 be a3 e1 6c 3c c2 fa 87 bc bb 91 e1 bd
       -0.14514275 0.014458093 -0.016599063 -0.11014124
000100 40 ff e5 3d 7a d5 00 bd 53 a5 8d 3d 89 f3 18 be
       0.11230326 -0.031453587 0.06916299 -0.14936651
000110 ec 59 f2 bb bb fa 49 be 32 80 39 3d b0 bd da 3b
       -0.0073959734 -0.19724552 0.045288272 0.0066754445
000120 a7 c5 b9 3d 20 19 5a be 84 35 5d be 52 16 b1 3d
       0.09070902 -0.21298647 -0.21602446 0.086468354
000130 45 3b 4b 3e 10 42 27 be a1 ee 64 bd 1b 5f 16 be
       0.19846828 -0.16333795 -0.055891637 -0.14684717
000140 cc 0f ac 3e 81 46 3a 3c 96 f2 9a 3d 30 47 0a be
       0.33605802 0.0113693485 0.07565801 -0.13503718
000150 60 a5 dc bd 36 e7 7a 3d 0b cf 99 3d 3d 76 27 be
       -0.1077373 0.061255656 0.075101934 -0.16353698
000160 52 23 e1 3d c1 6e 50 bd f8 3e a9 3d 11 48 30 be
       0.10993065 -0.050886873 0.082639635 -0.17214991
000170 6b 42 33 be 21 5a d0 bd 5b 76 97 bd f7 a0 66 3e
       -0.17505805 -0.10173441 -0.073956214 0.2252234
000180 dd 96 1e be ab 0e 52 be c0 9d 93 3d 5b 3d 7b 3d
       -0.15487237 -0.20513408 0.07207823 0.06133781
000190 da 49 34 be 4c c2 1e be 7c ab 86 3d 11 61 ab 3e
       -0.17606297 -0.15503806 0.06575677 0.33472493
0001a0 e8 20 4e be 6f a4 8e be 80 6a 02 be 8f ee e0 3d
       -0.2012974 -0.27859828 -0.12735939 0.109830014
0001b0 6a cb 31 be 6c d9 ea 3c 63 06 84 3d 22 7e 1a bd
       -0.17362753 0.028668128 0.06446531 -0.037717946
0001c0 5d 8b 9f be 1f 53 54 be 38 4e 1d 3e 98 b2 92 ba
       -0.31161013 -0.20734833 0.1536187 -0.0011192141
0001d0 c9 c1 12 3e e9 2b b6 3d b2 24 e6 3d 3b 4c 08 be
       0.14331736 0.08895094 0.11237468 -0.1331033
0001e0 30 16 ff 3d ee e5 3c 3c f6 9d e1 bd de 84 8c be
       0.12455404 0.011529429 -0.11016457 -0.2744512
0001f0 ec 77 a9 3c 0a a3 2d be 96 bb 07 3e 2c 2b 27 be
       0.020687066 -0.16956726 0.13255152 -0.16325063

fc2.weight f4 [64, 128]
000000 7a 5a e4 bc 83 a0 2e be 09 c0 3b 3e bb 11 a4 bd
       -0.027875174 -0.17053418 0.18334974 -0.08011194
000010 0a b5 93 3c 38 b5 b1 be 99 cb 49 3d 91 00 19 bd
       0.018030662 -0.3470857 0.04926643 -0.037354056
000020 6b e9 14 be 18 26 1d 3d 48 d3 ad bb 76 07 11 bf
       -0.14542167 0.038366407 -0.0053047277 -0.5665201
000030 b2 09 ed 3d ef 15 cd 3c 96 3d 12 3d be 26 b2 3c
       0.11574115 0.025034873 0.035703264 0.02174699
000040 70 ab c8 bc 5d 4c 43 bf 7e b9 31 be 3f 9a b2 be
       -0.02449581 -0.76288396 -0.17355916 -0.34883305
000050 84 b0 39 bd ee 5e 91 3c 5e 3e 96 bd cb eb 92 bd
       -0.045334354 0.017745461 -0.07336114 -0.0717388
000060 03 81 4e be b7 75 0c 3f 83 af 15 bd 9c 36 db 3e
       -0.20166402 0.5486712 -0.036544334 0.428151
000070 18 67 43 be 28 10 0e 3f 37 2d dd bd 1e 98 00 bd
       -0.19082296 0.554934 -0.1079964 -0.03139507
000080 79 e2 a4 3d a5 c2 2d 3e a1 7a 31 3c 38 ed 14 3d
       0.08051009 0.16968782 0.01083246 0.036359042
000090 cb 5a a0 bc d3 69 02 3e ec f1 e2 3d 9e 91 1b 3f
       -0.019574543 0.12735681 0.11081299 0.6076907
0000a0 8e e2 d2 3d ab 8d ae bd 39 74 15 bd 69 65 5b 3d
       0.10297118 -0.08523115 -0.03648779 0.05356351
0000b0 29 4c 9b bd 96 82 f1 bd 72 aa 88 bd 98 c3 24 be
       -0.07582886 -0.117924854 -0.06673135 -0.16090238
0000c0 02 ed 5e bc bd 79 41 bd dd 26 95 bd a3 5c bf be
       -0.013606312 -0.04723524 -0.07282803 -0.37375364
0000d0 7f 40 df 3b 7e 51 dd bc 3d 65 ef 3c 3b b2 8b 3e
       0.0068131085 -0.027016398 0.029223079 0.27284417
0000e0 fc 9a 30 be 18 22 23 be dc 51 bf bd 1f 9b b9 3c
       -0.17246622 -0.15930974 -0.09341785 0.022656975
0000f0 61 6a 87 3d 11 de 98 3c 53 3f b6 bd 30 52 29 3d
       0.06612087 0.018660577 -0.08898797 0.041338146
000100 11 af 27 3d 9d cd 45 3d 48 c8 4c 3e 8d 31 d3 3d
       0.04093844 0.04829179 0.19998276 0.103121854
000110 48 e0 9b 3d 4e 9d 2b be 52 55 82 3e 92 74 b2 bd
       0.07611138 -0.16759226 0.2545572 -0.0871364
000120 c1 8f b5 bd 16 41 48 3e b3 77 7b 3d 26 93 de 3d
       -0.088653095 0.19556078 0.06139345 0.1086791
000130 5c de 25 3e 4f a6 c7 bc d9 89 1c 3d 83 ed 0b 3d
       0.16198105 -0.024371294 0.0382174 0.034162056
000140 a0 a9 15 3b c0 07 94 3c 0f 09 99 3c 88 27 5e 3e
       0.00228367 0.018070102 0.018681077 0.21694767
000150 8f ac dd 3d 94 e5 76 be 8c 73 48 3c 61 0a 3e 3d
       0.108239286 -0.24111015 0.01223458 0.046396617
000160 e2 da 81 3e f6 e5 6e bd a2 ec b7 be b4 cf 44 3e
       0.25362307 -0.058324777 -0.35922724 0.19219857
000170 a6 df 98 bd bb 57 04 3e ff de 0d 3e 93 82 80 be
       -0.074645326 0.12924092 0.13854598 -0.2509962
000180 20 0c 90 3d e4 c5 85 3e 43 9b 7a be d8 d5 3b 3e
       0.07033563 0.2612754 -0.2447329 0.18343294
000190 cf 7a fc 3e 95 55 0c bc 96 b2 ae 3c e5 c2 02 be
       0.49312446 -0.008565326 0.02132539 -0.12769659
0001a0 2f aa da bd 69 a5 84 bd fc ed 89 3e 6d a8 8f 3d
       -0.10676991 -0.06476862 0.2693938 0.070145465
0001b0 7d 25 a1 3d c6 50 9e 3c 3b 72 10 bd 3e c9 33 be
       0.078684784 0.019325625 -0.03526519 -0.17557237
0001c0 4a ab fc bd 9c cb 79 3d 80 3a 89 3d d4 58 19 be
       -0.12337358 0.060985193 0.06700611 -0.14975291
0001d0 02 4d ab 3c 12 23 78 3d 08 8f ba be 62 a5 bc bd
       0.020910744 0.06058032 -0.3643725 -0.09211232
0001e0 ce fb 9e bd 9a 2f 97 3b f6 aa 7b bd 57 36 2a be
       -0.07762872 0.004613829 -0.061442338 -0.16622292
0001f0 ab 55 4d 3b a6 a4 84 bd 43 aa 50 3d 4a d4 44 be
       0.003133158 -0.06476717 0.050943624 -0.19221607
000200 3c e1 ad 3d 8b 61 b0 3d e1 d8 b3 3e 87 5c 97 3e
       0.08490226 0.08612355 0.35126403 0.2956278
000210 5f e0 82 bd 57 54 ce 3c 5a cb a8 bb e4 e0 ef bd
       -0.06390452 0.0251867 -0.0051511945 -0.11712816
000220 74 0e 03 bf f0 ae 70 3e 6a b6 fc bd d9 2f 4f 3e
       -0.5119393 0.23504233 -0.1233948 0.20233096
000230 e4 e4 53 be 02 af 45 be 7f 34 57 3e dd 33 dd 3c
       -0.20692784 -0.19305041 0.2101612 0.02700227
000240 ce 33 81 be 5c 99 62 3e 70 75 90 3e e4 e4 2e 3e
       -0.25234836 0.22128814 0.28214598 0.17079502
000250 72 2b 87 3d 11 4b 34 bd ed 97 c9 3d 22 54 b1 3d
       0.066000834 -0.0440169 0.09843431 0.08658625
000260 87 5e 36 3e f3 99 a0 3d b3 ee 95 3e 12 38 9b 3d
       0.17809497 0.078418635 0.29283676 0.07579054
000270 e3 3a 7f 3d 00 dc 18 3e 54 58 6c be 98 4e f8 bd
       0.062312018 0.14927673 -0.2308057 -0.121243656
000280 47 37 8e 3e b7 03 50 bd 09 ce c9 be 77 f9 65 bd
       0.27776548 -0.050784793 -0.39415005 -0.05614611
000290 28 f4 9a 3e ce 1d a4 bc e4 f3 e6 3c 6e f7 21 3c
       0.302644 -0.020033743 0.028192468 0.009885652
0002a0 be 5b 0a bf 4c a7 04 3e ef f1 49 3e b8 da 95 bd
       -0.5404624 0.12954444 0.19721197 -0.07317108
0002b0 ae a7 38 3e 3a 2c a6 3c 93 c7 51 be e8 9c d7 3d
       0.18032715 0.02028476 -0.20486288 0.10527974
0002c0 5e 0d b7 be 73 7f 8d 3e e7 f3 e1 bd 01 9b 71 3c
       -0.35752386 0.276363 -0.11032849 0.0147464285
0002d0 1a 4c 80 3e 62 9b b5 3d 88 50 3e be b2 15 c0 3d
       0.2505806 0.088675275 -0.18585408 0.09379138
0002e0 aa 56 d3 3a 98 92 68 3d eb 69 91 bd 04 f6 a5 be
       0.001612385 0.056780428 -0.071002804 -0.32414258
0002f0 05 01 28 3d 36 94 44 3e 1f b4 ac bd f1 fa 29 be
       0.041016597 0.19197163 -0.08432793 -0.16599633
000300 50 01 8f 3e 78 5e a1 be f9 41 59 3e 84 c3 49 be
       0.2793069 -0.31517386 0.21216573 -0.1970349
000310 37 d8 5f 3e d2 02 17 be a6 e2 c9 3e 2c b6 1d be
       0.21859823 -0.1474717 0.39430732 -0.15401524
000320 ec 1b 8b be 9f 8d 1d 3f ce 7c 11 be 27 73 06 3d
       -0.2716974 0.6154422 -0.14207765 0.03282466
000330 1c 81 99 3e a1 bd 48 3e e6 ff 81 3b 0e b9 87 bf
       0.29981315 0.19603588 0.003967273 -1.0603349
000340 1d 4c ce bd 4c e2 5c be 3d 29 57 3e 99 55 3d 3d
       -0.10073111 -0.215707 0.21011825 0.04622421
000350 98 d2 40 3f 38 57 61 be 80 31 97 bd c8 a3 cb be
       0.7532134 -0.22005928 -0.07382488 -0.39773393
000360 a7 9b 9d 3e 5e 61 3e bf 75 64 67 3e 0c 3d c2 be
       0.30782816 -0.7436732 0.22596915 -0.379372
000370 5c 51 0c 3d 4b 68 b7 3d a0 a3 0d 3e 6a ea dc bd
       0.034257278 0.08955439 0.13831949 -0.107868984
000380 05 cf d5 bc 69 5c d5 3d 03 8c c3 bd 54 4f d7 3d
       -0.026099691 0.104180165 -0.095481895 0.105131775
000390 4a f2 b2 3d c1 ca c7 3e 99 1a 4c 3d 14 ad e8 3e
       0.08737619 0.39021876 0.049830053 0.45444548
0003a0 c1 00 a8 bd 23 a3 89 be 7f e4 06 3e 61 9c ad 3e
       -0.08203269 -0.26882276 0.13173102 0.3390837
0003b0 1d 5e 43 be b0 76 9e be 92 29 8c 3e 13 a1 8c be
       -0.1907887 -0.30949926 0.27375466 -0.2746664
0003c0 d5 1a bd bd 0d e7 b8 bd 91 d8 08 3e e5 bb 35 be
       -0.092336334 -0.090284444 0.13363864 -0.17747457
0003d0 99 4e 5f be 11 29 b7 bc cf 06 91 3e 17 3e 96 3e
       -0.21807326 -0.02235845 0.28325507 0.29344246
0003e0 cc c3 0c be a2 f3 86 be d5 65 37 bf c7 c1 a3 be
       -0.13746566 -0.26357752 -0.7163976 -0.31983778
0003f0 59 98 44 3e af ba 77 3e d5 51 bf be 29 ba f1 3e
       0.19198741 0.24192308 -0.3736712 0.4721234

fc2.bias f4 [64]
000000 da c7 e1 3e 2d 15 4a be 93 9c e7 3e e1 db ba bd
       0.44097787 -0.1973464 0.45236644 -0.0912397
000010 49 4c 07 be 7e 15 9b b9 39 ea 4e bd 00 ec aa 3d
       -0.13212694 -0.00029579917 -0.05051634 0.08345795
000020 83 fe 8b bd a7 2a 50 bd 85 a3 a3 3d 09 93 89 3c
       -0.06835654 -0.050821926 0.07990173 0.016793745
000030 b6 b2 bb bd 27 1b f3 3d b1 32 84 bd bd 27 50 bd
       -0.09164946 0.11870413 -0.06454981 -0.050819147
000040 ee 9e 11 bd a5 9b af bd 01 a3 31 bd ab b3 02 bd
       -0.035551958 -0.08574609 -0.043368343 -0.031909626
000050 4d 25 ce bc 50 01 8d 3d a5 b1 81 bd ae e3 69 3e
       -0.02516427 0.06885016 -0.06332711 0.22840759
000060 19 ae 64 bd 6c d1 47 3e f9 b7 25 3e 7a 1a b3 3d
       -0.055830095 0.19513482 0.16183461 0.087452844
000070 41 e3 27 be a2 11 ca bd f8 8d e1 3d ec e0 26 3f
       -0.16395284 -0.098666444 0.110134065 0.65186954
000080 0a c3 0f bd d2 8a 3c 3d 3a b4 8d 3d f3 48 a8 be
       -0.035098113 0.046030827 0.06919141 -0.32868156
000090 21 c1 08 be e2 92 9f 3c 7c ba b1 3d 30 74 ea 3d
       -0.13354923 0.019479219 0.08678147 0.11447942
0000a0 aa cb 7b bb dd 14 9b bd bb 01 fe 3c fb 94 d0 3d
       -0.0038420954 -0.07572339 0.031006685 0.10184666
0000b0 aa 67 1b 3f 4e e2 ca 3d 57 47 2a bd 6d 2c 03 be
       0.60705054 0.099064454 -0.04157194 -0.12809916
0000c0 18 61 17 3f 8d 39 22 be 84 94 6e bc 5b 95 d6 bc
       0.5913253 -0.15842266 -0.014561776 -0.026194265
0000d0 3d 42 12 be 47 0e 1d 3e db e7 50 3f dd a7 0c 3e
       -0.1428308 0.15337478 0.81603783 0.1373591
0000e0 a1 e4 87 bd c9 2a 90 3e f9 e0 48 3e ce 2c 9f 3d
       -0.066354044 0.28157642 0.1961707 0.07772218
0000f0 40 3a 37 3e d6 53 33 be fd 21 aa bc 83 53 c8 bd
       0.17893314 -0.1751245 -0.02076816 -0.097815536

fc3.weight f4 [4, 64]
000000 67 a2 32 3e 98 cb 07 be 77 bd 6c 3e 82 61 0f 3e
       0.17444764 -0.13261259 0.2311915 0.1400204
000010 6a 6c 4c be bb 08 45 3d 39 70 63 3d bf e9 3a 3e
       -0.19963232 0.04810403 0.055526946 0.1825323
000020 22 3e 02 3e 96 6b 2f bc b5 32 cd 3d 83 f3 16 3d
       0.12719014 -0.010706803 0.10019437 0.036853325
000030 ed 17 1f be 6f 66 56 be a0 d7 bb 3e 21 f3 c4 bd
       -0.1553647 -0.20937513 0.36687946 -0.09616686
000040 1c 16 ef 3d 9a 33 4a 3d 5c 97 72 bd bc 2b b0 3e
       0.11674139 0.049365617 -0.05922638 0.34408367
000050 b4 ae 72 bd ac 85 9d 3d 02 92 3e 3e 7f 0b a9 bc
       -0.05924864 0.076915115 0.18610385 -0.020635365
000060 d1 83 62 3d de da 56 bc d5 04 aa bc a2 c6 50 bd
       0.05530149 -0.013113705 -0.020754257 -0.05097068
000070 88 6b 55 be 23 1b 25 bf 63 74 ed 3d ab 6a 48 3e
       -0.20841801 -0.6449453 0.11594465 0.1957194
000080 03 f5 51 3e c7 0d 1d 3e 7e b8 07 3d 3a 4b f8 be
       0.20503621 0.15337287 0.03313493 -0.48494893
000090 92 ef 33 be af cf a6 3d a2 2b f5 be a9 1c ac 3c
       -0.17571858 0.08145081 -0.47884852 0.02100976
0000a0 91 7f aa 3d 66 82 b4 be ea 89 03 bf 7b c0 4f 3d
       0.083251126 -0.35255736 -0.51382315 0.050720673
0000b0 35 d1 a9 3d b5 2e a1 be 4f ee 4b 3d 98 37 4c be
       0.08291856 -0.31480947 0.049787816 -0.19943082
0000c0 20 5d 26 3e 92 5f 26 3e af ca ab 3e 38 fa b3 bd
       0.16246462 0.16247395 0.33553073 -0.0878796
0000d0 b4 7d dc be a5 0a cb 3e 6f ad 6d 3e 05 01 65 bc
       -0.43064654 0.3965656 0.23210691 -0.013977294
0000e0 ac ba c1 bd cd 57 4a 3e d1 49 1c 3d c0 6d 07 3e
       -0.09459433 0.19760056 0.038156334 0.1322546
0000f0 50 f3 f6 3d 99 0f 04 bf ed 41 ab 3e dc f2 02 3e
       0.12058127 -0.515863 0.33448735 0.12787956
000100 23 96 16 3e 09 b6 fb bc df 18 04 3e 98 23 e9 3d
       0.1470571 -0.03072645 0.12900113 0.11383742
000110 48 f3 29 bd e5 4e 0a 3e bf e7 98 3d 6a f2 04 3e
       -0.041491777 0.13506658 0.07466077 0.12983099
000120 25 3e 38 3e 9d 2c b7 3e c0 a1 a6 bd 0a 9d c3 3d
       0.17992456 0.35776225 -0.0813632 0.09551437
000130 8c f3 31 3e 48 0e b8 bc d1 f9 5b 3e aa 48 dc bd
       0.17378062 -0.022467747 0.21482016 -0.10756047
000140 8b fc 34 3e 20 1f 02 bd 9c 1e 85 3e 5f 90 8e 3e
       0.17674462 -0.031767964 0.25999916 0.2784452
000150 97 3e dc be 26 fe 55 bd f3 6c 99 be 78 11 0d bd
       -0.43016502 -0.052244328 -0.29965934 -0.034440488
000160 7a cc 51 be f8 d1 97 be bb 05 a6 3c ab 4b 41 be
       -0.20488158 -0.2965238 0.020266404 -0.18876521
000170 b2 5b cc bd b1 5f dc bd 91 57 3f bc 8e 1c 22 3e
       -0.09978427 -0.10760439 -0.011678592 0.15831205
000180 87 83 f8 be bf f7 bc be 20 19 a8 be 47 6b e1 3d
       -0.48537847 -0.36907765 -0.3283167 0.1100679
000190 75 53 87 bc 90 17 49 3d e5 31 bd be ab a2 95 3b
       -0.016519288 0.049094737 -0.3695213 0.0045665107
0001a0 32 c9 d7 be d7 4e 28 be eb b9 21 3c af 88 dd 3d
       -0.42145687 -0.16436325 0.009870986 0.10817086
0001b0 df 68 1c 3e 06 7b 23 3e d8 e9 92 bd 8f ef b2 3e
       0.1527438 0.15964898 -0.071735084 0.34948394
0001c0 7a f9 2f 3e cf e1 68 be ac 31 a1 3e ab 8e b3 be
       0.17185012 -0.22742389 0.3148321 -0.35069785
0001d0 7a 70 a2 bc f0 56 51 3e 94 22 89 3e 3a d1 52 bc
       -0.019829024 0.2044332 0.26784194 -0.012867266
0001e0 f4 84 d3 3e 69 4a 17 3e b1 f3 6d 3c 23 5a 77 3e
       0.41312373 0.14774479 0.014523433 0.24155478
0001f0 cb 35 28 3e 08 64 13 be 2f 1d a1 3e 83 55 ff 3d
       0.1642677 -0.14393628 0.31467578 0.12467482
000200 f8 80 1e 3e 33 6f 00 bd 81 1e 80 3d 61 f3 35 3e
       0.15478885 -0.031356048 0.06255818 0.17768623
000210 18 22 ae bb ab 73 a7 3e 66 d0 05 3e 91 c3 6a 3e
       -0.005314123 0.32705435 0.13067779 0.22926165
000220 0a 35 18 3e 96 a5 75 be 12 be 05 3f b9 6c 27 3e
       0.14863983 -0.23988947 0.5224315 0.16350068
000230 20 90 37 bd e5 a3 22 be 94 65 ce 3d b2 45 c0 be
       -0.044815183 -0.15882833 0.10077968 -0.37553173
000240 01 20 2f 3e fc 20 81 be 78 e7 c4 3e cd 9a 0f 3e
       0.17102052 -0.25220478 0.38457847 0.14023896
000250 0f 3c 4b 3e 7f 0d e9 be 79 92 e2 be a9 13 07 be
       0.1984713 -0.4551811 -0.44252375 -0.13191094
000260 27 9e ad 3e 03 59 f5 3e 92 d9 74 3e 74 64 84 3e
       0.33909723 0.47919473 0.23911121 0.2585789
000270 f3 2f 93 be 22 cc fc be 68 4e a7 3e 92 43 fb 3d
       -0.2874752 -0.4937449 0.32677007 0.122687474
000280 12 df 48 be fe 70 38 be 6d ac 13 3e e8 f0 78 3d
       -0.19616345 -0.18011853 0.14421244 0.06077662
000290 e8 76 d4 bd c8 ad 34 3e 29 96 04 bf a6 03 49 be
       -0.10374242 0.17644417 -0.51791626 -0.19630298
0002a0 e1 bb 48 3e 06 80 f9 be 9b 81 9f be fe 3c e8 3d
       0.1960292 -0.48730487 -0.3115357 0.11339758
0002b0 9f 9c 4f 3e 09 96 34 3e ba 75 01 3d a5 fa ac bd
       0.2027459 0.17635359 0.031606413 -0.08446244
0002c0 2e 77 6d 3e 8c 2c 6a 3e 28 d8 aa 3c 75 38 79 3e
       0.23189995 0.22868556 0.020855024 0.24337943
0002d0 32 ce d3 be f4 1a 48 3d 4a 86 5e 3e 00 f1 36 3e
       -0.41368252 0.04885383 0.21730915 0.17865372
0002e0 03 37 e0 3d 60 08 01 3e 1e 25 4a be 46 3f ce 3e
       0.10947993 0.12600851 -0.19740722 0.4028265
0002f0 77 e3 f3 3d 18 f9 89 3d 00 f3 01 3f cf f2 1f bd
       0.1190862 0.06736964 0.50761414 -0.03904992
000300 68 a4 c3 bb db 35 65 be 46 fc 49 3e eb 29 96 3e
       -0.0059705265 -0.22383825 0.19725141 0.29328856
000310 17 fc 5f 3d 27 fb 5f 3d ca 49 d9 3d f5 8e 3b be
       0.05468377 0.054682877 0.10609777 -0.18316253
000320 25 b6 5b be 70 68 20 be c2 c6 8a be 01 e2 46 3e
       -0.21456201 -0.1566484 -0.27104765 0.19422151
000330 1a e2 e0 be a7 94 40 be 3f eb 08 3f db 8b 63 be
       -0.43922502 -0.18806706 0.5348396 -0.2222132
000340 99 7c 7b 3e a6 3c a4 3c 1a f6 87 be de ae db 3e
       0.24559249 0.02004845 -0.26554948 0.4290685
000350 d6 a6 3a 3e 9e df 43 be 3a 77 6a 3e 29 02 a1 3d
       0.18227705 -0.19128272 0.22897044 0.0786174
000360 fe 19 04 bf ad 6e 03 3f 24 a4 46 3e f1 2c f7 be
       -0.5160216 0.5134075 0.19398552 -0.48276475
000370 ce c3 d9 bc 7d 60 b8 be 8b ae d5 3e b6 3d 83 3e
       -0.026582625 -0.36011115 0.41734728 0.2563302
000380 6f 22 8e be af 1b ff be 4f a3 f1 be 0e 74 53 3d
       -0.27760646 -0.49825808 -0.47194907 0.05162435
000390 1a 8a 7c be 1b a2 c3 3d 82 18 4e 3c 77 22 9d be
       -0.24662057 0.095524035 0.012579085 -0.30690357
0003a0 e6 f1 7c 3e 09 e4 3b be 3f fc b5 bd 8b 6a 68 3e
       0.24701652 -0.18348707 -0.08886003 0.22696893
0003b0 d7 6d 57 3e d4 28 13 3e 5e cd ea 3d 5e 7f 69 3e
       0.21037994 0.14371043 0.11464952 0.22802493
0003c0 40 bd d4 3d 2e 47 83 3e 79 ed 9c 3e 76 c9 df ba
       0.10387659 0.25640243 0.30649927 -0.001707359
0003d0 a0 c2 8f bd 9e 2f 29 3e 41 47 7b 3e 3b 55 dd 3d
       -0.07019544 0.16522071 0.245389 0.10807272
0003e0 a8 cc fd bd 57 a1 ba 3c d1 25 a7 3d 20 46 34 3e
       -0.12392551 0.022782011 0.0816151 0.17604876
0003f0 e5 07 06 3e 34 ce 94 3e d8 cc fd 3d 8a 5b 9f 3e
       0.13088949 0.2906357 0.123925865 0.31124526

fc3.bias f4 [4]
000000 ad 9e 2e 3f d3 5e d0 3e 8a 82 26 3f bd 3d e0 3e
       0.6821087 0.40697345 0.65042937 0.43797103
