dqn_checkpoint.pth (torch, 55851 bytes, 6 tensors)

fc1.weight f4 [128, 37]
0	0x3e5cbe73	0.21557026
1	0xbccab68b	-0.024745246
2	0xbe4d0bdf	-0.2002406
3	0xbf1b59dc	-0.6068399
4	0xbdd0a509	-0.10187728
5	0x3e00a38b	0.12562387
6	0x3e26107a	0.16217223
7	0xbed53388	-0.41640878
8	0xbbb70bee	-0.005586139
9	0x3e80fd10	0.2519307
10	0xbe8d9431	-0.27652124
11	0xbe18f61e	-0.14937636
12	0x3e367b0d	0.17820378
13	0xbf3560dd	-0.70850927
14	0xbfdea4c3	-1.7394031
15	0x3dee228b	0.11627682
16	0x3e0b0349	0.13575472
17	0xbec689cc	-0.38777006
18	0xbe292545	-0.16518123
19	0xbeb7c846	-0.35894984
20	0x3ce8f228	0.028435782
21	0xbefdac06	-0.49545306
22	0x3ea0caee	0.31404823
23	0xbf164800	-0.58703613
24	0xbfd276fe	-1.6442564
25	0x3e9e1d29	0.30881622
26	0xbedfbd9d	-0.4369935
27	0xbea5415b	-0.32276425
28	0xbe8e24ae	-0.2776236
29	0x3d9297c7	0.071578555
30	0x3d305dd8	0.043058246
31	0xbf0011b8	-0.50027037
32	0x3d892d2d	0.0669807
33	0xbf1d7432	-0.61505425
34	0xbf4d78bc	-0.8026235
35	0xbdadcc98	-0.08486289
36	0xbd57f033	-0.052719306
37	0x3dc79dbb	0.097468816
38	0x3e48f3b2	0.19624212
39	0x3e0996bb	0.13436405
40	0x3e6604a1	0.22462703
41	0x3e24948e	0.16072294
42	0x3ce548c6	0.027988803
43	0xbe06fe24	-0.13182884
44	0xbd808228	-0.06274825
45	0x3d84fc12	0.06493391
46	0x3c8069e2	0.015675489
47	0x3dc018b6	0.09379713
48	0x3db8ed8f	0.09029686
49	0x3d1c12f1	0.038104
50	0x3d79d7fd	0.060996998
51	0xbc3d1001	-0.01153946
52	0x3ed6c32e	0.41945785
53	0xbf269961	-0.6507779
54	0xbf384b53	-0.71989936
55	0xbf494f03	-0.7863619
56	0xc0212367	-2.5177858
57	0xbcc144a7	-0.023592306
58	0x3d335679	0.04378364
59	0xbd4dc424	-0.050235882
60	0xbda4f370	-0.080542445
61	0x3d275c0b	0.040859263
62	0x3b9c9174	0.0047780816
63	0x3d189b36	0.037257396
64	0x3ce32959	0.027729677
65	0x3e84a138	0.2590425
66	0x3e556022	0.20837453
67	0x3d3b0456	0.045658432
68	0x3e2060b4	0.1566189
69	0x3dd65135	0.10464708
70	0x3de1160c	0.10990533
71	0xbd98279c	-0.0742943
72	0x3cfa6219	0.030564355
73	0xb9e5d45c	-0.00043836504
74	0x3e246122	0.16052678
75	0xbdd11b74	-0.102103144
76	0x3e4952f8	0.19660556
77	0xbe8f81ff	-0.28028867
78	0xbe05adda	-0.130546
79	0x3d94801b	0.07250997
80	0xbe454993	-0.19266348
81	0x3eacddbc	0.3376292
82	0xbed3972b	-0.4132627
83	0xbe870a07	-0.26374838
84	0x3d49c29d	0.049257863
85	0xbe620af3	-0.2207449
86	0x3be0ba6a	0.00685816
87	0xbb42f7fb	-0.0029749859
88	0xbe990f88	-0.29894662
89	0xbd96400f	-0.07336437
90	0xbeba9dc6	-0.36448497
91	0x3eb0863b	0.3447741
92	0x3ea76c8a	0.32699996
93	0xbe5eab66	-0.21745071
94	0xbe8a56bb	-0.27019295
95	0xbe5ad0bb	-0.21368687
96	0x3ea4a948	0.321604
97	0xbe464e2b	-0.19365756
98	0xbec86999	-0.39143065
99	0xbf155c7e	-0.58344257
100	0x3d4170a9	0.04722658
101	0x3e847784	0.25872433
102	0xbee8b91f	-0.45453736
103	0xbe07678c	-0.13223094
104	0xbf13b93a	-0.5770451
105	0x3d860ab1	0.06545008
106	0x3d97d8d4	0.074144036
107	0xbf00730a	-0.50175536
108	0xbd42bf75	-0.04754587
109	0x3cb63012	0.022239719
110	0xbd6d2814	-0.05789955
111	0x3ea0b057	0.31384537
112	0x3e1cfd6c	0.15331048
113	0x3bb97e0e	0.005660779
114	0xbe4e4387	-0.20142947
115	0xbd3c2463	-0.04593314
116	0x3d3cc325	0.04608454
117	0x3cf9a691	0.030474933
118	0x3e06f015	0.13177522
119	0x3ae486cf	0.0017435196
120	0x3e0a3017	0.13494907
121	0xbcfe21a2	-0.031021897
122	0xbd38df78	-0.04513499
123	0xbb7d6e55	-0.00386705
124	0x3dfca8b5	0.12336866
125	0xbe1816c4	-0.14852434
126	0x3d91acd7	0.07113045
127	0xbdbfda1a	-0.093677714
128	0xbd3df9c6	-0.04638078
129	0xbdd760de	-0.10516523
130	0xbe83c9a9	-0.25739792
131	0x3ce904ec	0.02844473
132	0x3de0e41b	0.10981008
133	0x3d82fe5b	0.06396171
134	0xbc97542e	-0.018472757
135	0xbc8a133b	-0.016854873
136	0xbd2ed098	-0.0426794
137	0x3e674c25	0.2258764
138	0x3e26f105	0.16302879
139	0x3cb3030d	0.02185204
140	0x3f20abb6	0.6276201
141	0x3ea2d184	0.31800473
142	0xbca8652e	-0.020556059
143	0xbe2f3faf	-0.17114137
144	0xbec0ae8b	-0.37633166
145	0xbfd1f873	-1.6403946
146	0xbd69eb31	-0.05710906
147	0xbc157a3d	-0.009123382
148	0xbe8cee71	-0.27525666
149	0xbe6e5a37	-0.23276602
150	0xbe3eecff	-0.18645094
151	0x3d03dd3e	0.032193415
152	0xbe90bba7	-0.28268167
153	0xbeea341e	-0.45742887
154	0x3e943a3c	0.2895068
155	0xbde22090	-0.11041367
156	0x3e565d72	0.20934084
157	0x3e418f14	0.18902236
158	0xbc62e4bb	-0.013848479
159	0xbeaa8a7d	-0.33308783
160	0x3e0eb1a4	0.13934952
161	0xbe873f30	-0.26415396
162	0xbe2e4b4a	-0.17020908
163	0xbebf5386	-0.3736841
164	0xbd181bee	-0.03713601
165	0x3bfa05b5	0.007630075
166	0xbdd1b3d5	-0.10239378
167	0xbea6d382	-0.32583243
168	0xbdd677b6	-0.10472052
169	0x3db327de	0.087478384
170	0xbbef493d	-0.007302432
171	0xbedcb255	-0.43104807
172	0xbdaee03d	-0.08538864
173	0xbdf83cd4	-0.12120977
174	0x3d95d21c	0.07315466
175	0xbe68b0f6	-0.22723755
176	0x3e7600fa	0.2402381
177	0xbf129055	-0.57251483
178	0x3b7523de	0.0037405412
179	0xbedb720f	-0.42860457
180	0x3e376f26	0.17913494
181	0xbdbac421	-0.0911944
182	0x3ed44bc1	0.41464046
183	0x3e548806	0.20755014
184	0x3d7d8305	0.061892528
185	0xbd12a95a	-0.035806037
186	0x3e016034	0.12634355
187	0xbdaa44e2	-0.083139196
188	0xbebaf21f	-0.3651285
189	0x3dc90be0	0.09816718
190	0x3de43c7d	0.1114435
191	0x3d341092	0.043961115
192	0xbe03f827	-0.12887631
193	0xbe401bc6	-0.18760595
194	0xbf06d09f	-0.5266208
195	0xbce94c4e	-0.028478768
196	0xbe147b5d	-0.14500184
197	0xbda093eb	-0.07840713
198	0xbd6e44cc	-0.05817108
199	0xbe58c1f4	-0.21167737
200	0xbe33bc15	-0.17552216
201	0x3daf416b	0.08557399
202	0xbd23780b	-0.039909404
203	0xbd6827ed	-0.0566787
204	0xbe159cca	-0.14610592
205	0x3de564fa	0.112009004
206	0xbcd57808	-0.026058212
207	0xbd77b4d2	-0.060475178
208	0x3cb2c7d5	0.021823803
209	0x3db5e597	0.088816814
210	0xbd09f2e8	-0.03367892
211	0x3cc02e16	0.023459475
212	0xbdb63af3	-0.088979624
213	0xbd9d42e4	-0.07678774
214	0x3e8ad97f	0.2711906
215	0xbcf4c9a6	-0.02988131
216	0xbe0b9e3e	-0.13634583
217	0xbdb88557	-0.090098076
218	0x3d5125ba	0.05106137
219	0xbf460190	-0.77346134
220	0x3deb24fd	0.11481664
221	0x3da55115	0.08072106
222	0x3ef094b9	0.46988466
223	0xbf346069	-0.7045961
224	0xbf2fec16	-0.68719614
225	0xbf49d6c4	-0.7884333
226	0xc00a8711	-2.1644938
227	0xbd6740eb	-0.056458395
228	0xbd70972f	-0.05873793
229	0xbd1c5c85	-0.03817417
230	0x3e67cc3b	0.22636501
231	0x3e4d8c71	0.20073105
232	0x3c8e4906	0.017368805
233	0x3e33ea48	0.1756984
234	0x3d63d04d	0.055618573
235	0x3e36de2a	0.17858186
236	0xbce6393f	-0.028103469
237	0xbeaebf26	-0.3413021
238	0xbd3aa7de	-0.045570247
239	0x3e430a25	0.19046839
240	0x3ed3c76e	0.4136309
241	0x3f17e492	0.59333146
242	0xbc081d09	-0.008307704
243	0x3d849488	0.064736426
244	0xbdbf4aeb	-0.09340461
245	0x3d9536c4	0.07285836
246	0x3df1e383	0.118109725
247	0xbe0ea649	-0.1393062
248	0xbb945de3	-0.0045277937
249	0x3d16bad2	0.03679926
250	0xbc1b5666	-0.009481048
251	0x3d66b349	0.056323323
252	0xbcc2c22f	-0.023774235
253	0x3dd30c44	0.10305074
254	0xbca31956	-0.019909542
255	0xbcae38d0	-0.021267325

fc1.bias f4 [128]
0	0x3cfccb20	0.030858576
1	0x3d5b06a3	0.053473126
2	0xbdc87fcd	-0.09790001
3	0xbcb4a3d5	-0.022050777
4	0xbdc59847	-0.09648185
5	0xbe2a02ef	-0.16602682
6	0x3d65651a	0.05600462
7	0xbd8891e7	-0.06668454
8	0xbe979264	-0.29603875
9	0x3e4ad0ec	0.1980626
10	0xbce87c10	-0.02837947
11	0x3d50f9c4	0.051019445
12	0x3d1b4a4f	0.037912663
13	0xbd97d223	-0.07413127
14	0x3d4484ea	0.04797832
15	0xbd20dae0	-0.039271235
16	0x3d0eb70e	0.034842543
17	0xbe5150fe	-0.20441052
18	0xbdd0b482	-0.10190679
19	0xbd9cbd04	-0.07653239
20	0xbe9771e0	-0.29579067
21	0xbdcccc94	-0.09999958
22	0x3d9ac7d5	0.07557646
23	0xbd0c959f	-0.034322377
24	0x3dbf59b8	0.09343284
25	0x3e3c836d	0.1840951
26	0x3e5f8df1	0.2183149
27	0xbdb85156	-0.089998886
28	0x3db54a41	0.088520534
29	0xbe85b278	-0.26112723
30	0x3e1de0d2	0.15417793
31	0x3d87f893	0.06639209
32	0xbdf5a7c7	-0.119948916
33	0xbd820cbb	-0.063500844
34	0xbdcf14f8	-0.10111421
35	0xbe13e92a	-0.14444414
36	0x3c8f2703	0.017474657
37	0x3e2c0f50	0.16802716
38	0xbcef5e09	-0.029219644
39	0xbd8e158c	-0.069377035
40	0xbcd3f723	-0.02587468
41	0x3df39ed4	0.118955284
42	0x3e3779f1	0.1791761
43	0x3d32e8cb	0.04367904
44	0xbd04080c	-0.032234237
45	0xbe2f513b	-0.1712083
46	0x3b8723e8	0.0041241534
47	0xbe2ffad3	-0.17185526
48	0xbe17f61f	-0.14839981
49	0x3d2a89fd	0.041635502
50	0xbd88d393	-0.066809796
51	0x3e3d265b	0.18471663
52	0xbd0f58b6	-0.03499671
53	0x3dc1a4fc	0.094552964
54	0xbdbc39c7	-0.09190708
55	0x3e9b20ab	0.3029836
56	0x3de1746f	0.11008536
57	0xbe374cf2	-0.17900446
58	0x3d1875ab	0.037221592
59	0xbe2cea7d	-0.16886325
60	0xbe30a365	-0.1724983
61	0x3e899c8b	0.26877245
62	0xbd0dc4ad	-0.034611393
63	0xbe3e05a3	-0.18556838
64	0x3d720ee9	0.05909625
65	0x3de0d68d	0.10978422
66	0x3c079ec8	0.0082776025
67	0xbe4e5a76	-0.20151696
68	0xbe179f85	-0.14806946
69	0xbd522116	-0.051301084
70	0x3c4bb1de	0.012432544
71	0x3d1c81aa	0.038209595
72	0xba534ad8	-0.0008060164
73	0xbda67644	-0.08128026
74	0xbe78667e	-0.24257848
75	0xbdc78f23	-0.09744098
76	0x3e8d273f	0.27569005
77	0x3dbb715d	0.09152482
78	0x3e3ea334	0.18616945
79	0x3d8eec16	0.069786236
80	0xbdf9fe43	-0.122067
81	0x3dc7fddb	0.09765216
82	0x3c98f270	0.01867029
83	0xbe8eaa9f	-0.2786455
84	0xbe088ed0	-0.13335729
85	0x3cc291df	0.023751197
86	0x3c810e4f	0.015753893
87	0x3d0ce9e3	0.03440274
88	0x3d881929	0.06645424
89	0xbcdc48db	-0.026890209
90	0x3dd8d9bb	0.10588404
91	0xbde8fa9b	-0.11375924
92	0xbb8580d9	-0.0040741977
93	0xbe9f6a38	-0.31135726
94	0xbd204a1d	-0.03913318
95	0x3dae09e3	0.084979795
96	0xbd811a6c	-0.06303868
97	0xbe9abcd8	-0.302222
98	0xbe1489be	-0.1450567
99	0x3e316bca	0.17326275
100	0xbe6881da	-0.22705784
101	0xbea0e0b2	-0.3142143
102	0x3d47d891	0.04879052
103	0x3e50b93b	0.2038316
104	0xbe92d6e6	-0.2867958
105	0xbe8f369e	-0.27971357
106	0xbe18a1b7	-0.1490544
107	0x3db8a5d5	0.09016005
108	0xbe129d56	-0.14317831
109	0xbd700119	-0.058594797
110	0x3c9464b0	0.018114418
111	0xbdd46834	-0.10371438
112	0xbe12d05f	-0.143373
113	0xbcaeca91	-0.021336826
114	0xbd9d27c7	-0.076736026
115	0x3c4a91ea	0.01236389
116	0x3e927f4f	0.28612754
117	0x3e2fd5bf	0.17171381
118	0x3e39eec2	0.18157485
119	0xbdd5cb75	-0.10439197
120	0x3e75be63	0.23998408
121	0x3cf8381d	0.030300194
122	0xbd9636c1	-0.07334662
123	0xbec64f90	-0.38732576
124	0x3d9da727	0.076978974
125	0x3c9f5e5c	0.019454174
126	0x3dd32c66	0.10311203
127	0xbc6e7309	-0.014553794

fc2.weight f4 [64, 128]
0	0xbe5b7f0e	-0.21435186
1	0x3bdda535	0.006764079
2	0xbdd0809a	-0.10180779
3	0xbdb2af18	-0.08724803
4	0xbd00d0e3	-0.03144921
5	0xbde7af15	-0.11312691
6	0xbedebf74	-0.43505442
7	0x3e123576	0.14278206
8	0xbd4f0d97	-0.05055007
9	0xbb45bd92	-0.0030172807
10	0xbd91867a	-0.071057275
11	0x3c8bb8e4	0.017055936
12	0xbdd89b21	-0.105764635
13	0xbdb0c32f	-0.08630978
14	0xbe457210	-0.19281793
15	0x3c981d81	0.018568756
16	0xbc8c8e4b	-0.017157694
17	0xbe0a2bd8	-0.13493288
18	0xbe6e95f2	-0.23299387
19	0xbcaec64b	-0.021334788
20	0xbe0f7666	-0.14010009
21	0x3e535c25	0.20640619
22	0xbd33c913	-0.04389293
23	0x3ded5df6	0.11590187
24	0xbc9096c6	-0.01765002
25	0xbceb2c5e	-0.02870768
26	0xbe59a1e6	-0.21253166
27	0xbe03131c	-0.12800258
28	0x3c263a43	0.010145727
29	0x3e92e818	0.28692698
30	0xbd9a0cc3	-0.07521965
31	0xbe2ef059	-0.17083873
32	0xbcbf6eb0	-0.02336821
33	0x3d628586	0.05530312
34	0xbc60d39d	-0.013722328
35	0xbeb2a676	-0.34892625
36	0xba6c3923	-0.00090111996
37	0xbdd6cab1	-0.10487879
38	0x3d60c726	0.054877423
39	0xbe8815ad	-0.26579037
40	0xbb997191	-0.0046827276
41	0xbe87e2da	-0.26540262
42	0x3e6448cf	0.222934
43	0x3ed50fcf	0.41613623
44	0x3d865c80	0.06560612
45	0xbda202d0	-0.07910693
46	0xbc8996e5	-0.016795585
47	0xbda15101	-0.078767784
48	0xbe2ff957	-0.1718496
49	0x3d09216d	0.033479143
50	0xbe40615b	-0.18787138
51	0x3dab1284	0.08353141
52	0xbdf653bb	-0.12027689
53	0x3c139d47	0.009009666
54	0xbd8ce52a	-0.06879647
55	0x3d44aa0f	0.048013743
56	0x3dc84b71	0.09780014
57	0xbe40dbf0	-0.188339
58	0x3d04d631	0.03243083
59	0xbc1bfd2e	-0.009520812
60	0xbe6602b7	-0.22461973
61	0xbc21d2a9	-0.009876885
62	0xbe4d5e2e	-0.20055458
63	0xbe49986a	-0.19687048
64	0x3de68c05	0.11257175
65	0x3d3ad688	0.04561475
66	0x3dc520c9	0.09625394
67	0xbe7a0ef4	-0.24419767
68	0x3cd2d46b	0.025736054
69	0xbdcd2af6	-0.1001796
70	0x3ca85624	0.020548888
71	0xbd94fdc7	-0.07274967
72	0x3c96366e	0.018336501
73	0x3d7712c6	0.060320638
74	0x3dc98fae	0.09841858
75	0x3d94f529	0.07273323
76	0xbed766c0	-0.4207058
77	0xbda46aab	-0.08028158
78	0x3d6caea0	0.057783723
79	0x3df8d9c1	0.12150908
80	0xbd1582e7	-0.03650179
81	0xbd9b743f	-0.075905316
82	0xbda3fa01	-0.08006669
83	0xbe2b699a	-0.16739503
84	0xbe06b35c	-0.13154358
85	0xbe71b786	-0.23605165
86	0xbd10fc9a	-0.03539715
87	0x3d780be8	0.06055823
88	0xbe5bf5c3	-0.2148047
89	0xbcd31900	-0.025768757
90	0xbad7b9aa	-0.001645853
91	0xbe2a7419	-0.1664585
92	0xbe52f974	-0.20602971
93	0xbd73b70b	-0.059500735
94	0x3df1d1a9	0.118075676
95	0xbeb6249e	-0.35574812
96	0xbe8e37b9	-0.27776888
97	0x3eb48875	0.35260358
98	0xbe0ec7d0	-0.1394341
99	0xbee9dbb6	-0.4567544
100	0x3dadb33a	0.084814504
101	0x3e0a6796	0.13516077
102	0xbdc98204	-0.09839252
103	0x3cba6c0d	0.0227566
104	0x3e16360b	0.14669053
105	0x3e02e7ee	0.12783787
106	0x3e0dbcad	0.13841505
107	0xbd955a19	-0.072925754
108	0x3e12ae25	0.14324243
109	0xbb22d920	-0.0024848655
110	0x3cae842d	0.02130326
111	0x3d9e4c0e	0.0772935
112	0xbd0bad3f	-0.034100767
113	0x3cf19089	0.029487865
114	0x3ac20d96	0.0014805074
115	0x3dcd2e56	0.100186035
116	0x3df46541	0.11933375
117	0xbd2c9a53	-0.042139363
118	0x3bc29303	0.0059379353
119	0xbe49e8da	-0.19717732
120	0x3e2e3009	0.17010511
121	0xbe674ad8	-0.22587144
122	0x3d171361	0.036883716
123	0xbeba21d5	-0.36353937
124	0xbe4242ed	-0.18970843
125	0xbdf1da66	-0.11809234
126	0xbe83f945	-0.25776115
127	0xbe81f076	-0.2537877
128	0xbdecc6d9	-0.11561365
129	0xbf107898	-0.5643401
130	0x3e99c28b	0.30031237
131	0x3e79fc47	0.24412642
132	0xbec28118	-0.37989116
133	0x3e079ba0	0.1324296
134	0x3ddfafe2	0.10922219
135	0xbe846262	-0.2585631
136	0x3d7c75bd	0.06163572
137	0xbe8738ae	-0.2641043
138	0xbf25f7b9	-0.6483112
139	0xbc363bf8	-0.011122696
140	0xbd95389f	-0.0728619
141	0xbf176d95	-0.59151584
142	0x3e4e9923	0.20175605
143	0xbeaa9d60	-0.33323193
144	0x3e3174af	0.17329668
145	0x3e28d56f	0.16487668
146	0x3eacd8b6	0.33759087
147	0xbee47540	-0.44620705
148	0xbeee4998	-0.46540523
149	0xbeb59cb8	-0.3547113
150	0xbe9a7a9c	-0.3017167
151	0x3e1829af	0.14859651
152	0x3df50b6e	0.11965071
153	0xbda3c8bf	-0.07997274
154	0x3c411612	0.011785047
155	0xbe7a768b	-0.24459283
156	0xbd393478	-0.045216054
157	0xbe29057a	-0.16505995
158	0xbd48d964	-0.049035445
159	0xbebb7a68	-0.36616826
160	0xbdf6524c	-0.12027416
161	0x3ed3c657	0.4136226
162	0x3e5675c9	0.20943369
163	0x3ee3535e	0.44399542
164	0xbb9fef5f	-0.00488083
165	0xbb4a3fcb	-0.0030860777
166	0xbe9daa7b	-0.3079413
167	0xbe79186a	-0.2432572
168	0xbeb83263	-0.35975942
169	0x3e0aed9f	0.13567208
170	0xbe09b7b2	-0.1344898
171	0xbd0f96db	-0.035055976
172	0xbd2b2158	-0.041779846
173	0xbf197d84	-0.59957147
174	0x3b9da4dd	0.004810913
175	0xbe3fee60	-0.18743277
176	0x3ca40dfc	0.0200262
177	0x3c7d9492	0.015477316
178	0xbd3c40d0	-0.045960248
179	0x3e455905	0.1927224
180	0x3edd04e8	0.43167806
181	0x3d83aa0c	0.06428918
182	0xbe253282	-0.16132548
183	0xbdb59433	-0.088661574
184	0x3df1f4c4	0.118142635
185	0x3cdb7798	0.026790425
186	0x3cc173a5	0.023614714
187	0xbef3caf1	-0.4761577
188	0x3d5c04b2	0.053715415
189	0x3d873afa	0.06603046
190	0xbed96b71	-0.42464784
191	0xbe59cdcd	-0.21269913
192	0x3ddddeb1	0.10833491
193	0xbe208235	-0.1567467
194	0x3ebf6275	0.37379804
195	0x3ebf51e6	0.3736717
196	0xbeade7a3	-0.33965787
197	0xbdb52c91	-0.08846391
198	0x3db3c631	0.087780364
199	0x3cf30fda	0.029670645
200	0xbe17318c	-0.14764994
201	0x3db04caa	0.086083725
202	0x3b282695	0.0025657762
203	0xbec1a93a	-0.37824422
204	0x3ec0826c	0.37599504
205	0x3eaee40f	0.3415837
206	0xbdf0fe89	-0.11767299
207	0x3c96a7cd	0.01839056
208	0x3d98f1e6	0.074680135
209	0xbc9266b8	-0.017871246
210	0xbe123795	-0.14279015
211	0xbe63d2be	-0.2224836
212	0x3cc9ec78	0.02464889
213	0xbda2232a	-0.07916863
214	0xbd916499	-0.070992656
215	0xbcdc995b	-0.026928594
216	0x3cb179f4	0.021664597
217	0x3d287151	0.041123692
218	0x3edfa5de	0.43681234
219	0x3e7eefcf	0.24896167
220	0x3e632a9a	0.2218422
221	0x3ca3ce41	0.01999581
222	0xbe6b9923	-0.23007636
223	0x3c80ce72	0.01572344
224	0xbeabce38	-0.3355577
225	0xbe44217a	-0.19153395
226	0xbf0f6d0f	-0.56025785
227	0x3d2a04ba	0.041508414
228	0x3e363093	0.17791967
229	0xbdceaaf0	-0.100911975
230	0x3d7934e1	0.060841445
231	0x3da972f2	0.08273877
232	0x3b0e9bc0	0.0021760315
233	0xbe862163	-0.26197347
234	0x3dfe70f9	0.124238916
235	0x3e14973e	0.1451082
236	0x3e9ff05b	0.31238064
237	0xbeec6013	-0.4616705
238	0x3d056688	0.032568485
239	0xbe11b904	-0.14230734
240	0xbf6e1837	-0.930057
241	0x3d3b9c91	0.04580361
242	0x3dc225fd	0.09479902
243	0x3e934edc	0.28771102
244	0xbe5296e3	-0.20565371
245	0xbe681e7d	-0.2266788
246	0x3c87a8be	0.016559955
247	0xbf3bb8d3	-0.73328894
248	0xbe0573ea	-0.13032499
249	0x3ee1e6d5	0.44121423
250	0x3d91a5fb	0.071117364
251	0x3cbae8f1	0.022816153
252	0xbdd630f9	-0.104585595
253	0x3e239904	0.1597634
254	0x3c82e78e	0.015979555
255	0x3dca3a0f	0.09874355

fc2.bias f4 [64]
0	0x3ece5030	0.40295553
1	0xbd373dd2	-0.04473669
2	0x3ee9bd06	0.45652026
3	0xbda23794	-0.07920757
4	0x3e2cf743	0.16891198
5	0xbdf97cd2	-0.12182011
6	0xbdedef61	-0.116179235
7	0x3c6ea784	0.014566306
8	0x3d4b07b2	0.049567886
9	0xbe12bf39	-0.14330758
10	0x3e67af78	0.2262553
11	0x3e0c361d	0.13692518
12	0xbd507c8c	-0.050900027
13	0xbb8db948	-0.0043250658
14	0x3daedcb8	0.085381925
15	0x3e1910d4	0.14947826
16	0x3dcb7524	0.09934452
17	0x3d547b37	0.05187532
18	0xbd989387	-0.074500136
19	0xbdc7057f	-0.09717845
20	0xbd55dd33	-0.052212905
21	0x3d078bee	0.03309243
22	0x3da138cb	0.078721605
23	0xbce08495	-0.02740697
24	0xbd239332	-0.0399353
25	0xbe21e7b5	-0.15811045
26	0x3f507df9	0.8144222
27	0xbbd5c74b	-0.0065240017
28	0x3e953c88	0.29147744
29	0xbd8bf741	-0.06834269
30	0x3d53c5d2	0.051702328
31	0x3f27caf2	0.65544045
32	0xbe32e9e5	-0.17472036
33	0xbcdfe1d1	-0.027329357
34	0x3be11359	0.0068687615
35	0xbdb2d41e	-0.087318644
36	0x3d88b0c9	0.06674344
37	0x3d4fba6b	0.05071489
38	0x3da6ac19	0.08138294
39	0x3e167088	0.14691365
40	0x3d8545ff	0.06507491
41	0xbdc14c4b	-0.0943838
42	0x3dcc9f41	0.09991313
43	0x3d8646c2	0.06556465
44	0x3f27115a	0.6526085
45	0x3dd8d078	0.10586637
46	0x3ee9da31	0.4567428
47	0xbce16fc1	-0.027519109
48	0x3e5034a5	0.20332582
49	0x3c528b16	0.0128505435
50	0x3b60bd48	0.0034292508
51	0xbd873748	-0.06602341
52	0xbdd56255	-0.10419146
53	0x3f036d02	0.5133821
54	0x3db995a3	0.09061744
55	0x3f1fa733	0.623645
56	0x3ca696e5	0.020335624
57	0x3f1ebfa5	0.62011176
58	0x3f423d97	0.7587523
59	0xbdcf2ef9	-0.10116381
60	0xbdaced79	-0.08443732
61	0xbde1b60d	-0.110210516
62	0xbe4946aa	-0.19655862
63	0x3d50b7da	0.050956585

fc3.weight f4 [4, 64]
0	0x3d64c7e5	0.055854697
1	0xbcfd8fbb	-0.030952325
2	0x3e244101	0.16040422
3	0x3de2485d	0.110489585
4	0x3e4c3b8c	0.1994459
5	0x3e06b87a	0.1315631
6	0x3e233eba	0.15941897
7	0x3e57e92a	0.21085039
8	0x3d8c8290	0.0686084
9	0xbecb4ac9	-0.39705494
10	0x3d8d0322	0.06885363
11	0x3e11913f	0.14215563
12	0xbcbce837	-0.023059947
13	0x3d9fe057	0.07806461
14	0x3e1e3f4b	0.15453832
15	0x3e62f50b	0.22163789
16	0x3efe0134	0.49610293
17	0x3e0c5e8a	0.13707939
18	0x3dae5c58	0.08513707
19	0x3de2488d	0.11048994
20	0xbdf94f5a	-0.12173338
21	0x3ea218f2	0.31659657
22	0x3e0ed6c2	0.13949111
23	0x3c5f6b75	0.01363646
24	0x3db67262	0.089085355
25	0xbe72ec56	-0.23722968
26	0x3e7a7fa9	0.24462761
27	0x3ea6e45e	0.32596105
28	0x3e3c3da3	0.18382888
29	0xbf5e5ce7	-0.8686051
30	0x3de26ab1	0.11055506
31	0x3e3ccd4a	0.18437687
32	0xbe462b1c	-0.19352382
33	0xbde4ab8c	-0.111655325
34	0xbc359293	-0.011082309
35	0xbd13bc5e	-0.036068313
36	0xbd707622	-0.05870641
37	0xbe13634d	-0.14393349
38	0x3e317046	0.17327985
39	0x3d831ae6	0.06401615
40	0x3e7accdb	0.24492209
41	0xbe9c7222	-0.30555826
42	0xbd048254	-0.032350853
43	0x3dac2437	0.08405345
44	0x3daa8443	0.08326008
45	0x3df608f7	0.12013429
46	0x3dd8926f	0.10574805
47	0x3d2ba460	0.041904807
48	0xbc234083	-0.009964111
49	0x3d9b3743	0.075789
50	0x3dfc56e5	0.12321261
51	0x3e6b4daa	0.22978845
52	0xbdcaf0e4	-0.099092275
53	0x3e0dad22	0.13835576
54	0x3e350b9b	0.17680208
55	0x3dd640bf	0.10461568
56	0x3e62d489	0.22151388
57	0x3e15e32b	0.14637439
58	0x3e20499e	0.15653083
59	0x3d8d3550	0.06894934
60	0x3da06225	0.078312196
61	0x3e493562	0.1964927
62	0xbe67e0e7	-0.22644387
63	0x3e06f413	0.13179044
64	0x3dcfd966	0.10148887
65	0x3e80666e	0.25078148
66	0x3bae0ae6	0.005311358
67	0x3e5b1484	0.21394545
68	0x3e8d8740	0.2764225
69	0x3ef72c32	0.48275906
70	0xbe84c300	-0.25930023
71	0xbe74ddab	-0.23912685
72	0x3e2f29bc	0.17105764
73	0xbd73c2b6	-0.059511863
74	0x3bc1f35c	0.0059189033
75	0x3e42649b	0.1898369
76	0xbe0606b2	-0.13088492
77	0x3e400c9e	0.18754813
78	0x3e5d06a6	0.21584567
79	0x3e41a599	0.18910827
80	0x3f021679	0.5081554
81	0x3db3a89e	0.087723956
82	0x3d4c4219	0.049867723
83	0x3da1b45a	0.078957275
84	0xbed2fc02	-0.41207892
85	0xbc270d41	-0.010196031
86	0x3e21bf6f	0.15795682
87	0xbdd43c74	-0.10363093
88	0x3cc47267	0.023980333
89	0xbd7e5932	-0.062096782
90	0x3e5d5fb1	0.21618535
91	0xbc978628	-0.018496588
92	0x3e126429	0.1429602
93	0x3d3251f6	0.043535195
94	0x3ea1cd0d	0.31601754
95	0x3deb4d02	0.114892974
96	0xbde6fa9a	-0.11278267
97	0xbef9b6af	-0.4877219
98	0xbeb1c4cf	-0.34720466
99	0x3c2d8c56	0.010592541
100	0x3e188f77	0.14898477
101	0x3d1129fc	0.03544043
102	0x3e3eae5b	0.18621199
103	0x3de1f564	0.11033133
104	0xbd08b0d9	-0.03337178
105	0xbc80f554	-0.015741982
106	0x3d95687d	0.0729532
107	0x3d140de5	0.036146063
108	0x3e6130c1	0.21991254
109	0x3e13a233	0.14417343
110	0x3e2a2ebf	0.16619395
111	0x3dedbd99	0.116084285
112	0x3de9037b	0.11377617
113	0x3e07bf26	0.13256511
114	0x3e9c71bf	0.3055553
115	0x3ce8bf75	0.028411606
116	0xbda6f840	-0.08152819
117	0x3e69af93	0.22820882
118	0x3e5940d7	0.2121614
119	0x3de31777	0.1108846
120	0x3e02c80c	0.12771624
121	0x3db49d58	0.088190734
122	0x3e5a4a74	0.21317464
123	0x3e183fe6	0.14868125
124	0xbe156451	-0.14589049
125	0x3e1358f3	0.143894
126	0xbdc7de9a	-0.09759255
127	0x3e031f4d	0.12804909
128	0x3d1c16e8	0.038107783
129	0xbed59bf3	-0.41720542
130	0x3c8dc503	0.017305857
131	0x3ea31528	0.31852078
132	0x3ea7cc38	0.32772994
133	0x3ee22c3f	0.44174382
134	0x3bf2756d	0.007399252
135	0xbf168ea4	-0.588114
136	0x3dfbd012	0.12295546
137	0xbe8fdb7d	-0.28097144
138	0x3cb208df	0.021732746
139	0x3d77ec8f	0.060528334
140	0xbeea72ac	-0.45790613
141	0x3e107fc6	0.14111242
142	0x3e16fa0f	0.14743827
143	0x3e1cb859	0.15304698
144	0x3e1b241f	0.15150498
145	0x3d94ada1	0.072596796
146	0x3eac0c47	0.33603117
147	0xbe651a60	-0.22373343
148	0x3e4d80d4	0.20068675
149	0x3e103b9d	0.1408524
150	0xbcc7297d	-0.024311775
151	0xbc08e010	-0.008354202
152	0xbe46663a	-0.19374934
153	0xbd8a9df2	-0.06768407
154	0x3e6146c3	0.2199965
155	0x3e54f564	0.20796734
156	0x3dc6cb25	0.097067155
157	0x3e7b59dc	0.24545997
158	0x3eb970ec	0.36218965
159	0x3dc1e02b	0.09466585
160	0xbeb2d379	-0.34926966
161	0x3e76bde8	0.24095881
162	0x3ea006bd	0.3125514
163	0xbd2b1efe	-0.041777603
164	0x3efcbb05	0.49361435
165	0x3ebcb97a	0.36860257
166	0x3e78c868	0.24295199
167	0x3e3e1408	0.18562329
168	0x3e106de3	0.14104418
169	0xbf4d9f2a	-0.8032099
170	0x3db74251	0.08948196
171	0xbd96a361	-0.07355381
172	0x3e2265d2	0.15859154
173	0x3bb841e0	0.0056230873
174	0x3af1037d	0.001838788
175	0xbed4cd56	-0.4156291
176	0x3da4e1d2	0.08050884
177	0x3e1a9898	0.15097272
178	0x3ec392d9	0.38197973
179	0x3ec72762	0.38897234
180	0xbd3aba94	-0.04558809
181	0x3e21f18c	0.15814799
182	0x3da614ff	0.081094734
183	0x3e66cc6e	0.22538921
184	0x3df4ec96	0.11959188
185	0x3e52407e	0.20532414
186	0x3e1ea106	0.15491113
187	0xbef13cf8	-0.47116828
188	0xbccd4091	-0.025055202
189	0x3c2759ab	0.01021425
190	0xbd0ee8c6	-0.03488996
191	0x3e07fad0	0.13279271
192	0x3dbc0595	0.09180752
193	0x3e949e75	0.29027143
194	0x3d17d38b	0.037066977
195	0x3e860b06	0.26180285
196	0x3c0588d4	0.008150298
197	0x3ea48991	0.32136205
198	0xbe99fdef	-0.30076548
199	0xbef99377	-0.4874532
200	0x3e272e0e	0.16326162
201	0xbf463596	-0.77425516
202	0xbe5e9069	-0.21734776
203	0x3e0b7ea2	0.13622525
204	0xbf306397	-0.6890196
205	0x3de72aad	0.11287437
206	0x3ea37782	0.31927115
207	0x3e29047e	0.1650562
208	0x3ef98af3	0.48738822
209	0x3e86f740	0.26360512
210	0x3d860e15	0.06545655
211	0x3e983322	0.2972651
212	0x3eb279bc	0.348585
213	0x3ef8ce3c	0.48594844
214	0x3e1b0d45	0.1514178
215	0x3ddc1080	0.107453346
216	0x3e9db297	0.30800316
217	0xbeb5a336	-0.35476083
218	0x3e6d6a66	0.23185119
219	0x3d3ca10a	0.046052016
220	0x3d8a967f	0.06766986
221	0xbefd6605	-0.49491897
222	0x3e92b171	0.28651002
223	0x3e5fe7af	0.21865724
224	0x3cc8eaee	0.024526086
225	0x3d492da3	0.04911579
226	0xbe93da16	-0.28877324
227	0xbd6748ac	-0.05646579
228	0xbdda5a73	-0.10661783
229	0xbe783c3c	-0.24241728
230	0x3e37cf64	0.17950207
231	0x3e26b3cb	0.16279523
232	0x3ea0a473	0.31375465
233	0xbce7f6fb	-0.028316012
234	0xbedde632	-0.43339688
235	0xbee85ea6	-0.4538471
236	0x3e570e15	0.21001466
237	0xbe9a7348	-0.30166078
238	0x3d991bdc	0.07476017
239	0x3dfd71ac	0.12375197
240	0xbea0dc72	-0.31418186
241	0x3e3c5ab5	0.18393977
242	0xbe3f2e8f	-0.18670104
243	0x3ee632d4	0.44960654
244	0x3da9d2d8	0.082921684
245	0x3de37d26	0.111078545
246	0x3ec6e34b	0.38845286
247	0x3e0c01c7	0.13672553
248	0x3e4a9863	0.19784693
249	0x3da5eb49	0.08101518
250	0x3e11587e	0.14193913
251	0x3ea602dc	0.32424057
252	0xbed3bef7	-0.41356632
253	0xbf18b0fa	-0.59645045
254	0xbe5491c4	-0.2075873
255	0x3e3249a9	0.17410912

fc3.bias f4 [4]
0	0x3f17db84	0.5931933
1	0x3ebb4750	0.36577845
2	0x3efec449	0.4975913
3	0x3eecf450	0.46280146
