perdqn_checkpoint.pth (torch, 55851 bytes, 6 tensors)

fc1.weight f4 [128, 37]
000000 77 6e b2 3e b3 37 54 be e5 e9 c6 bd 93 ea c5 be
       0.34849903 -0.20724373 -0.097125806 -0.38655528
000010 af c6 ba bf cf 7c 1b bd 5b 6a 52 3e 5b bd 06 3e
       -1.4591883 -0.037960824 0.20548384 0.13158171
000020 e6 a4 c7 3c ad e6 87 be ec 8d 85 be 0f 90 a9 bd
       0.024370622 -0.2654318 -0.2608484 -0.0827943
000030 60 2e 8d 3d d0 14 4d 3e 85 9e 4c be 4a 93 71 3e
       0.06893611 0.2002747 -0.19982345 0.23591343
000040 a9 5a 5c 3e d9 c7 54 bd 7a 55 44 bf fa 3e e2 be
       0.21518959 -0.051948402 -0.76692927 -0.44188672
000050 82 bd 95 bc 17 8a cd 3e 59 c3 b7 38 2a 8d 85 3d
       -0.01827884 0.40144417 8.762506e-05 0.065210655
000060 3d fe 4a 3e d5 4b 8c be 84 e0 28 3e fb 24 da 3e
       0.19823547 -0.27401605 0.16491896 0.4260634
000070 f7 64 55 bf 17 8c 5a bd 0f ae 35 be 26 36 76 3e
       -0.83357185 -0.053356256 -0.1774218 0.24044093
000080 99 56 0e be d4 7b bc bd 34 d0 a7 be 86 64 79 bd
       -0.13900222 -0.09203306 -0.32776034 -0.060886882
000090 76 30 2b bc ed c9 f8 3e f4 ea 6a be de c7 bb be
       -0.010448566 0.48591557 -0.2294119 -0.36675924
0000a0 20 7d 70 be 26 82 8c bf 44 bd 4a be 5f 1c 00 3d
       -0.23485231 -1.0977218 -0.19798762 0.031277057
0000b0 60 04 29 be 1c 47 c3 be 63 d4 6a 3e c6 48 e4 bc
       -0.16505575 -0.3814019 0.22932582 -0.027866732
0000c0 19 bb 67 3c ef cc 73 be 93 7e 20 3c 22 ba 36 bd
       0.014143729 -0.23808645 0.009795803 -0.044611104
0000d0 e6 7c 7f be 4b 8b 84 3e 3a ce cd bd de 0f ab 3e
       -0.24949989 0.25887522 -0.100491 0.33410543
0000e0 46 f9 20 3f 96 3e b3 be bb 5b ac 3c e8 df 36 be
       0.6288036 -0.35008687 0.021039834 -0.17858851
0000f0 73 5a 83 3e ec 19 f2 bb cb 46 22 3c 3f b1 28 3d
       0.25654945 -0.007388344 0.009904574 0.04118466
000100 1f be 3b bd c1 e6 56 be be ac 6e bd 6a 11 93 3a
       -0.04583561 -0.20986463 -0.05827021 0.00112204
000110 20 7e 9c 3d f2 9d 33 3e c4 8c 5b be c3 ca 9a bd
       0.07641244 0.1754072 -0.21440417 -0.07558205
000120 0f 7e ce 3c f2 27 60 3d 57 c9 88 3e 31 86 8c 3e
       0.025206594 0.054725595 0.2671611 0.2744613
000130 62 8c cf 3c 75 9f 9c be ea c2 59 bf 3f 57 bd be
       0.025335494 -0.30590406 -0.8506304 -0.36980626
000140 ce 4f 04 bf 5f af f7 3e a2 1d 3d 3c b7 12 60 bd
       -0.5168427 0.48375985 0.01154271 -0.054705348
000150 c8 c2 9c 3d 69 7d 56 be 7f 2d 40 3d 7b 74 2a be
       0.07654339 -0.20946278 0.04691839 -0.16645996
000160 a0 13 a9 bd 80 5d 1e be 45 2d 40 bd d2 d0 c4 3d
       -0.08255696 -0.15465355 -0.046918172 0.09610142
000170 12 c0 dc 3e bb 31 4c 3e f1 6b b8 be f2 30 34 be
       0.43115288 0.19940846 -0.36019853 -0.17596796
000180 71 99 30 bb 5b c2 92 3e 07 80 5d bf 48 d7 19 3e
       -0.0026946927 0.28663906 -0.8652348 0.1502353
000190 28 0d 97 bd 0d b7 24 3c 19 f7 43 3e f9 22 2b 3d
       -0.07375556 0.010053408 0.19137229 0.0417814
0001a0 df a6 97 be 5b 5a 88 3e 0a 3b 93 be ba c2 d7 bd
       -0.296195 0.26631436 -0.2875598 -0.10535188
0001b0 dc bc 7d 3e 77 81 43 3e 55 be 6d bd cf 8e 03 3f
       0.24779075 0.19092356 -0.058042843 0.51389784
0001c0 b1 78 07 bf 18 bd 0e bf 21 cb 1a bf 40 c1 26 c0
       -0.52918535 -0.55757284 -0.604662 -2.605545
0001d0 a1 ac 15 bd 20 d6 9b 3b ca ed fd 3d 3e 96 d4 3d
       -0.036541585 0.0047557503 0.1239887 0.10380219
0001e0 a7 0e 17 3e 8a 37 a4 3c 92 b5 7e 3c 96 4e b5 3d
       0.14751683 0.020046014 0.015546219 0.0885288
0001f0 0d ec 8b 3d fe 5a 6d bc 60 e9 f4 3c 6c 12 bd bc
       0.068321325 -0.014487026 0.029896438 -0.023080073
000200 23 18 12 bd c5 2c 1e 3d b6 b1 bb 3d 0f 94 87 bd
       -0.03566755 0.038616914 0.09164755 -0.06620037
000210 38 c8 da 3d 5c 35 b1 3d 77 fe 21 3e 1a d4 a8 bc
       0.1068272 0.086527556 0.15819727 -0.02060895
000220 f7 14 e7 bc 95 b4 55 3d 63 d0 11 3e fe fb 8b 3e
       -0.028208239 0.05217417 0.1423965 0.27340692
000230 9d b1 21 3e 06 b8 33 ba e7 b1 38 3e 48 51 ea 3d
       0.1579041 -0.000685573 0.18036614 0.114412844
000240 8d ed 3e 3e a9 68 42 3d 91 70 08 3c 62 40 54 bb
       0.18645306 0.047463093 0.008327619 -0.0032387008
000250 83 8e f4 be 35 85 ab bd 77 b0 d1 3d 6a 53 5c be
       -0.47764978 -0.083750166 0.10238736 -0.21516195
000260 e4 45 11 bd a2 25 37 bd 31 e1 60 be d1 af 22 bb
       -0.035467044 -0.044713624 -0.21960904 -0.0024824033
000270 72 0a 8e 3e 7b d9 51 3e 6d 62 70 3e aa 46 28 bf
       0.27742344 0.20493118 0.23475046 -0.65732825
000280 0f 98 ba be f0 a6 f4 bc c1 2e 23 bf 52 3c a4 be
       -0.36444137 -0.029864758 -0.63743216 -0.3207727
000290 f8 c2 ae be da 86 6f 3e 76 ee 0b 3e 10 a6 37 3e
       -0.34133124 0.23391286 0.13665184 0.17934442
0002a0 25 6c 85 be 8e c4 27 be 39 2c 19 3e 89 c3 6b 3e
       -0.2605907 -0.16383573 0.14958276 0.2302381
0002b0 4a cc 73 3e 4d 4e 05 3e ea 4e c9 bd 14 92 56 3e
       0.23808399 0.1301815 -0.09829505 0.20954162
0002c0 7d da 64 bf 30 0c 95 bd fd de 5b 3e 4e 4d b8 bf
       -0.89395887 -0.07277715 0.21471782 -1.4398592
0002d0 41 70 ae bd bf 95 b2 3e ab b3 fb 3e b9 8d 3c be
       -0.085175045 0.34879872 0.49160513 -0.18413438
0002e0 e6 98 be 3c c8 56 1b 3d d4 d8 f7 3c cb 1f 81 be
       0.023266267 0.037924558 0.030254759 -0.2521957
0002f0 34 cd 3a bd 28 4d b2 bd b2 26 7b 3d 17 4b a6 3e
       -0.045605853 -0.08706123 0.0613162 0.32479164
000300 a4 da 35 bd 52 9a 42 be b7 23 3f bf 35 5b 1f 3e
       -0.044397965 -0.19004181 -0.7466387 0.15562136
000310 b0 d1 8c bb 6a 97 b1 be 98 fc 89 bd 52 df 9d 3d
       -0.0042974576 -0.34685832 -0.067376316 0.077086106
000320 f9 e6 53 3e eb 2e 9a 3d 76 cf 51 be 2f ce ae be
       0.20693578 0.0752848 -0.20489296 -0.3414168
000330 c3 5e 63 3e 16 e4 9c 3e dc 94 aa bd 70 4c 61 be
       0.22204117 0.30642766 -0.08329174 -0.22001815
000340 5a 04 30 3e 23 6f 86 3d 57 6b 27 be fa 87 e6 bd
       0.1718916 0.065641664 -0.1634954 -0.11256404
000350 c3 3c ca 3d 51 57 e4 3e 20 40 20 3e 85 4d f0 3d
       0.09874871 0.44597867 0.15649462 0.11733536
000360 a9 ff 17 bd 61 e4 c4 bd 6d 64 33 bd 5b 8b 71 bd
       -0.03710905 -0.09613872 -0.043796945 -0.05897079
000370 7f 29 97 3d f9 48 2a 3d 2f 90 32 3e 83 9c 45 3d
       0.073809616 0.0415735 0.17437814 0.048244964
000380 50 d7 f5 be 78 17 cc ba 33 58 a9 bc f5 67 69 3c
       -0.48015833 -0.0015570959 -0.02067194 0.014245977
000390 9a dc 4c be 62 c9 c9 bd 40 36 7f 3a c4 51 4e bd
       -0.20006028 -0.09852864 0.0009735562 -0.050370947
0003a0 f1 30 08 3e 5a 1d 81 be 87 e6 6a 3e 5d 6e 95 3d
       0.1329992 -0.25217706 0.22939502 0.07296441
0003b0 35 3d e6 bd 53 06 de bd a3 85 d0 be 74 7f a3 3e
       -0.11242143 -0.1084105 -0.40726957 0.31933177
0003c0 db 95 6a be c3 2e be 3e 3c 13 59 be 73 1e 43 3e
       -0.22908728 0.3714505 -0.21198744 0.19054584
0003d0 2e b2 80 3d 2b 08 e5 bd e4 08 b8 3d ea 65 74 be
       0.06283985 -0.111831985 0.08986071 -0.23867002
0003e0 e2 d1 62 be c6 86 cb bc c5 9e 89 3e 87 ec e8 bd
       -0.22150376 -0.024844538 0.26878944 -0.11373239
0003f0 4f 8f 87 3e 58 84 be bd 33 fa af be 34 94 38 be
       0.26476523 -0.09302586 -0.34370574 -0.18025285

fc1.bias f4 [128]
000000 4d 29 5e 3d ed 4f ff 3c cb 49 8d bd fb fa a9 3b
       0.054238606 0.031166041 -0.068988405 0.00518739
000010 12 4c 14 bd b1 57 6c bd 4d 37 38 bc 4e b4 41 3d
       -0.03620536 -0.057700817 -0.0112436535 0.047291093
000020 6f 39 15 be e8 07 9e 3c 9f 31 80 bd 36 24 2f be
       -0.1457269 0.01929088 -0.062594645 -0.17103657
000030 62 da d9 bb 18 bf 0e be 40 83 ef bd 7e eb fd 3c
       -0.0066483477 -0.13940084 -0.11694956 0.03099608
000040 94 e3 07 3d 75 ec 40 be fd a0 d0 bd d3 d9 56 3c
       0.03317602 -0.18840201 -0.10186956 0.013113457
000050 08 e2 c1 bd 01 f4 de bc 6b 86 c6 3d 59 0f 4c bd
       -0.0946694 -0.02721596 0.09693607 -0.049819324
000060 1f 09 27 3e d2 64 e8 3d 78 79 0d 3e 11 08 59 bd
       0.16312073 0.11347355 0.13815868 -0.05298621
000070 2b 5f 8e bd 78 d1 3f bd 34 85 2a 3f 50 72 be 3d
       -0.069517456 -0.046830624 0.666095 0.09299147
000080 19 1d 00 3d 0b f5 3a bd b9 ab 92 3e 7b 5b b3 be
       0.03127775 -0.045643847 0.2864664 -0.35030732
000090 c5 11 80 bd 05 a6 c9 3d a4 f4 20 3d 02 30 06 3e
       -0.06253389 0.09846119 0.039295807 0.13104251
0000a0 c9 d3 e7 bc 74 1e 2d 3e c8 d2 23 3e cf 67 3a bd
       -0.02829923 0.16906148 0.15998375 -0.045509156
0000b0 9e 06 93 3d 76 22 bf bc 64 14 ce 3d 74 cb e1 be
       0.071789965 -0.023331862 0.10062483 -0.44100535
0000c0 0a 30 45 be 38 c7 93 bc ad 28 4f bc ad e7 e6 3c
       -0.19256607 -0.01803933 -0.012643975 0.028186643
0000d0 e5 c1 7f 3d 11 86 c8 3d b2 04 f9 3c da d9 23 3d
       0.06244077 0.09791196 0.030397747 0.04000268
0000e0 35 7e f7 bd e8 96 0c be 34 58 94 bd 46 5b e4 bc
       -0.12084619 -0.13729441 -0.07243386 -0.027875554
0000f0 97 db 03 be aa 0d ef 3a 28 c3 bc 3d 0b 2e 40 be
       -0.12876736 0.0018238325 0.092169106 -0.18767564
000100 9d a7 e8 3d af ab 7e 3d ea 8a cd 3d 5b 1f 20 be
       0.11360095 0.06217545 0.100362614 -0.15636961
000110 79 3e 9e be b5 23 b7 bd 5b 50 0f bd a6 66 0d bd
       -0.30907038 -0.089423575 -0.034988742 -0.03452172
000120 06 4b a8 3d d7 a2 15 be 25 be fe bd 07 48 81 bd
       0.082174346 -0.146129 -0.12438611 -0.06312566
000130 11 d9 4a 3d 11 da c5 bd 64 a6 8c 3d ca 12 dd 3d
       0.049523417 -0.096607335 0.06867674 0.10794599
000140 a3 49 b9 bc 22 8a bd 3d a0 41 09 3e d6 4b b5 bd
       -0.02261812 0.09254862 0.1340394 -0.08852355
000150 36 26 58 bd 15 44 69 3e db 63 16 3e 53 e1 4f be
       -0.052770816 0.22779877 0.1468653 -0.20300798
000160 fb a0 85 3d 3c f2 2e 3b e4 15 1d 3e 2e fd 0f 3d
       0.06524845 0.0026694676 0.15340382 0.03515356
000170 17 c0 24 be 57 f9 ac bd bb af f7 bb bd 9a 04 3e
       -0.16088901 -0.08445995 -0.0075587905 0.12949653
000180 f6 13 b5 3c b9 b7 9a be a6 eb f5 bc 76 39 bd 3d
       0.022104245 -0.30218294 -0.030019592 0.092394754
000190 b3 09 95 bd 5d f6 68 be 63 74 1d 3e 91 2e cf 3d
       -0.072772406 -0.2275023 0.1537643 0.10116304
0001a0 25 8d 38 be 1d 17 92 be 8d 18 43 be 00 a1 18 3e
       -0.18022592 -0.2853326 -0.19052334 0.14905167
0001b0 cf d6 5b be 0b 7e 9c 3d 45 bf 9d 3d f2 a1 47 be
       -0.21468662 0.07641228 0.077024974 -0.19495371
0001c0 0e 75 58 bd 51 95 27 be bb 4a 9f 3b 04 97 59 3e
       -0.052846007 -0.16365553 0.0048612035 0.21249014
0001d0 b7 7d 5a 3d cd b1 1d 3e ba 25 06 3d d5 ef 05 be
       0.053342547 0.15399857 0.032750823 -0.1307977
0001e0 3d 0d fc 3a 7d 63 02 bd 21 6b bd bd 53 87 17 be
       0.001923002 -0.03183316 -0.09248949 -0.14797716
0001f0 fe c1 20 3d 70 3d 99 3d 39 81 38 3c 2d 21 f7 3c
       0.039247505 0.074824214 0.011261278 0.030167187

fc2.weight f4 [64, 128]
000000 79 5c 6f bf ac bf 6c 3e 44 93 d9 3d af 19 49 3e
       -0.9350048 0.23119992 0.10623792 0.19638704
000010 94 ba 82 be b2 da c5 3d 78 53 90 3e f7 27 b9 be
       -0.25532973 0.096608534 0.28188682 -0.36163303
000020 fe 40 f4 3c 73 d7 3c 3d 81 92 d3 be 52 31 56 3e
       0.029816147 0.046103906 -0.4132271 0.20917252
000030 40 c6 fb bd 02 74 cc bd b3 3c f0 3e 54 68 00 3e
       -0.122936726 -0.09983064 0.4692131 0.12539798
000040 5d bc 89 3e 38 5e ad 3e c1 72 c9 be 3d 79 43 3e
       0.26901522 0.33860946 -0.39345363 0.19089217
000050 53 ec 60 3d 56 40 37 3e 06 67 17 be 62 8b e4 3e
       0.054912876 0.17895636 -0.14785394 0.4463759
000060 c6 d6 d1 bd 89 b0 d0 3e b5 75 b8 be 8f 5e 5f be
       -0.10246043 0.40759686 -0.36027303 -0.21813415
000070 d4 c0 ec bd 23 08 b7 3d 91 84 8b bd 15 05 dd 3e
       -0.115602165 0.08937099 -0.068123944 0.4316794
000080 18 31 d2 3e 1f a7 dc 3d ab 4e 2b be 5b 5a a3 be
       0.4105308 0.10774063 -0.16729228 -0.31904873
000090 39 76 89 bc 26 e1 b3 bc 9b 06 73 3d 35 03 22 bf
       -0.016780006 -0.021957945 0.05933247 -0.63286144
0000a0 e8 4b 64 3e 75 6c 07 3e 93 59 ab be 19 1c 2d 3e
       0.22294581 0.13224967 -0.33466777 0.1690525
0000b0 5c 0c 70 3e 57 9b a5 3e 00 2f 95 3c 27 44 02 3f
       0.23442215 0.32345077 0.018210888 0.5088524
0000c0 70 ae 8f bd dc bc 1a bf 36 40 c9 bd ed 8b f7 bd
       -0.07015693 -0.60444427 -0.098267004 -0.120872356
0000d0 2d 7c 9a bc c2 66 c0 bd 79 bb 69 3e f0 21 4b 3e
       -0.01885804 -0.093945995 0.22825421 0.19837165
0000e0 51 82 23 3c 21 c4 01 bf 3c 23 be 3e e4 a8 ae be
       0.0099798 -0.50689894 0.37136257 -0.34113228
0000f0 51 3e 31 be 42 5a 85 3b 0a dc 8c be 97 6a 41 3d
       -0.17308928 0.0040695975 -0.27511626 0.047220793
000100 98 0e e5 bd 2b df 67 bb dc c1 8d bd 3b 88 84 be
       -0.11184424 -0.0035380821 -0.06921741 -0.25885186
000110 82 84 4f bd 86 a5 c2 3b 96 c2 5c 3d 30 40 3f bc
       -0.05066348 0.005940142 0.05389651 -0.011673018
000120 c9 74 f7 bd ff 3b ae be b7 d6 05 bf e3 ee c4 bd
       -0.12082822 -0.34030148 -0.52280754 -0.096158765
000130 34 30 62 3d bf 93 96 bb dc 27 09 be c6 2d 6a be
       0.05522175 -0.0045952494 -0.13394111 -0.22869024
000140 62 10 5d bf c1 00 81 be 8f 9d 94 3d 6e 4e 03 3f
       -0.86353123 -0.25195888 0.072566144 0.5129155
000150 40 a5 4f 3e a7 12 56 bf 44 75 69 3d 82 eb e7 be
       0.20277882 -0.8362221 0.0569966 -0.45296866
000160 39 36 71 be 70 a5 80 3e a3 e9 e4 be 6e 1d 9b 3e
       -0.2355584 0.2512622 -0.447095 0.3029589
000170 4d 4f fc be 72 cc b9 be d6 e9 d0 3e 70 27 06 be
       -0.49279252 -0.36288792 0.40803403 -0.13100982
000180 5e 34 d6 be 3e 6d f6 bd cb 05 a6 be 58 d6 ac 3c
       -0.41836828 -0.12032555 -0.32426295 0.0210983
000190 e8 9c 81 bf 5c a9 7f be a6 f1 a6 bd d5 6d 90 be
       -1.0126009 -0.24966949 -0.081515595 -0.28208795
0001a0 93 9e 20 be 45 7f d6 bd ef 87 8f 3d 7c 06 06 3e
       -0.15685491 -0.104734935 0.07008349 0.13088411
0001b0 c4 72 69 be 17 1b 49 be 6e 85 53 3d 64 6b 1d 3e
       -0.22797686 -0.1963924 0.05164092 0.15372998
0001c0 fa 58 c9 be da eb b4 be 23 31 79 3e 88 ec c6 be
       -0.39325696 -0.3533619 0.2433515 -0.38852334
0001d0 e1 df 69 be 79 15 82 3d fc c5 9e 3e d7 6c 33 3e
       -0.2283931 0.06351752 0.31010425 0.17521988
0001e0 94 4b 05 3e 1b 3c d7 bc 33 d9 a5 bd 1d 69 49 3e
       0.13017112 -0.026273778 -0.08098068 0.19669004
0001f0 59 84 95 be 26 07 74 be 12 f4 9a 3e 10 02 73 be
       -0.29202536 -0.23830852 0.30264336 -0.23731256
000200 a8 e9 2b bf 59 4d 90 3e 83 a1 d8 3d 0c 02 ec 3e
       -0.67153406 0.28184012 0.10577681 0.46095312
000210 9e 84 ad be ea ef 05 be aa 83 4f bd 58 0f a0 be
       -0.3389024 -0.13079801 -0.050662674 -0.31261706
000220 97 eb 8c 3e a9 6f f1 be 4a 96 6d 3e b4 c2 06 bf
       0.2752349 -0.47155502 0.23201862 -0.52640843
000230 83 73 37 3b bf 0c 1e bc b7 4d 28 bd 03 50 0b bf
       0.0027992434 -0.009646594 -0.04108974 -0.54418963
000240 b0 40 fe 3c 67 f9 4b 3d 3a c6 a8 be fa 53 68 3e
       0.031036705 0.049798395 -0.32963735 0.22688285
000250 da b7 b4 be 00 a8 28 be e5 a0 72 bd 6f 08 a3 3d
       -0.35296518 -0.16470337 -0.059235472 0.07960593
000260 9a 15 04 bf 2b bf 1c 3e 48 67 5b 3e 24 54 47 bf
       -0.5159546 0.153073 0.21426117 -0.77862763
000270 bf a3 6c be df 30 5b bf 78 94 69 be ab da 6b 3d
       -0.23109339 -0.85621446 -0.22810543 0.057581585
000280 2c bf 2b be 3a ce 02 bf 52 94 20 be 05 5f f3 be
       -0.16772145 -0.51095927 -0.1568158 -0.47533432
000290 9d 28 f1 bc 7b 46 c0 3c 21 98 e1 3d b9 da b6 be
       -0.029438311 0.023471108 0.110153444 -0.35713747
0002a0 8b ca 5e bf 40 b9 88 3d 6a fc a2 bd 91 79 16 be
       -0.87027806 0.06675959 -0.079583004 -0.14694811
0002b0 0f 19 6a bd 9e 83 7a bd 22 67 14 bf 54 d3 e9 3d
       -0.057152804 -0.061160676 -0.5796987 0.11417261
0002c0 20 5e 5e be 06 eb 09 be 25 18 dd be 97 26 b6 3e
       -0.21715593 -0.1346856 -0.43182483 0.35576317
0002d0 cd 28 71 3e b4 5d ca be 1a 8c a9 be e2 c9 8b be
       0.2355072 -0.39524615 -0.33114702 -0.27302462
0002e0 c6 c5 e7 bd 30 af b2 be 60 cc 19 be de 93 a9 3c
       -0.11317019 -0.34899282 -0.15019369 0.020700391
0002f0 6c a7 89 3c 53 06 77 3e 9c df e0 bc 35 9a 25 bd
       0.016803466 0.24123506 -0.027450375 -0.040430266
000300 6e dd 55 be ba bf 8d 3e 93 b8 44 be 13 57 9b 3e
       -0.2088525 0.27685338 -0.19211034 0.3033987
000310 5d cd 46 3d ba d6 3b 3e 65 3b ac 3e d3 ea 6b 3d
       0.048535693 0.1834363 0.33639064 0.057596993
000320 39 fb 1f be f2 a7 81 be 94 10 2b 3e 77 98 9d 3d
       -0.15623178 -0.25323445 0.16705543 0.07695096
000330 64 12 a8 be ac 0a 6b 3d b0 1d 13 bf 6f 20 96 bd
       -0.3282653 0.057383224 -0.57467175 -0.07330405
000340 be e8 38 bf 1f 62 98 3c 10 42 d8 bc 71 64 60 bd
       -0.72230136 0.018601475 -0.026398689 -0.05478329
000350 da cd 06 3f 42 5c 25 bd 5b 30 03 be 41 d5 0e bf
       0.52657855 -0.040371187 -0.12811415 -0.5579415
000360 4c 59 8f 3e 26 97 4f be 6b 9e a8 be b8 89 cc bd
       0.27997816 -0.20272502 -0.32933363 -0.09987205
000370 e9 14 7f bd 78 57 07 bf d2 9a c6 bd a5 9a 4f 3e
       -0.0622758 -0.5286784 -0.096974984 0.20273836
000380 88 1e a8 bd 88 d0 db 3c 32 94 31 3e 4e 88 8f be
       -0.082089484 0.026832834 0.17341688 -0.2803368
000390 5e 2b 4a 3e fe c9 9f be 13 78 2d bd f4 99 a6 3e
       0.19743106 -0.31208795 -0.04235084 0.32539332
0003a0 13 42 88 be 44 59 22 bf 76 4f 52 3f 2b e6 b3 3d
       -0.2661291 -0.6341746 0.821525 0.087841354
0003b0 3f 56 02 be e2 2c 00 bf f7 f6 b2 3e ad 01 b9 3e
       -0.12728213 -0.50068486 0.34954044 0.3613409
0003c0 00 2a 1c 3d 22 3d 93 bd 8f 10 cb 3e 65 74 8e be
       0.03812599 -0.071893945 0.3966107 -0.27823177
0003d0 e7 41 2b bd bd 31 2c 3e e2 e4 d8 3d fa ed f2 3c
       -0.041810896 0.16815849 0.10590531 0.029654492
0003e0 db 2e 04 bf 55 ae 79 3c cb 0d b8 be 87 66 a7 be
       -0.51633996 0.015239318 -0.35948023 -0.3269541
0003f0 29 04 d2 3d 1c 49 0d 3e 54 82 37 bf 57 c7 02 3e
       0.102547 0.1379742 -0.7168324 0.12771355

fc2.bias f4 [64]
000000 66 ff 24 be f1 f4 4f be f4 aa 0c 3f f3 96 bb bd
       -0.16113052 -0.20308281 0.54948354 -0.09159651
000010 51 62 0e 3d 98 9d 5f 3d 87 94 8b 3d 15 59 a0 3d
       0.03476173 0.054593652 0.06815439 0.07829491
000020 d3 89 7c bc b6 89 0b be 38 72 09 be b4 11 b8 3d
       -0.015413719 -0.13626751 -0.13422477 0.089877516
000030 02 8b 6a be 18 51 f7 3c 1d 32 1a bc c3 b3 a9 3c
       -0.2290459 0.030190036 -0.009411362 0.0207156
000040 a4 47 26 be 4a f6 68 3c 75 f7 98 bd 10 36 71 be
       -0.16238266 0.014218876 -0.07469074 -0.2355578
000050 a0 c6 19 3e f7 d8 ce bc 57 44 67 3b 5a a0 62 3d
       0.15017176 -0.025249941 0.0035288536 0.055328704
000060 f3 ec ec bd 99 51 27 be b1 1f 25 3f ba b5 83 bd
       -0.11568632 -0.16339721 0.6450148 -0.06431146
000070 43 c0 9a bd d0 c6 7e be 63 3c 0a bd 7e 46 0b 3f
       -0.07556202 -0.24880528 -0.033748996 0.5440444
000080 48 d4 63 be 40 89 de 3d 88 a0 18 3d 19 04 43 be
       -0.22248948 0.10866022 0.03726247 -0.19044532
000090 b1 29 28 be f7 0c 3f 3e bc 40 41 be 23 a2 b2 3d
       -0.16422154 0.1865729 -0.1887235 0.087223314
0000a0 75 72 97 bd 8e 0d 3b be f2 6a a9 bd 81 c2 80 bd
       -0.07394878 -0.1826689 -0.08272351 -0.06287099
0000b0 c4 52 10 3f 12 03 b3 bd 21 35 01 be bb 41 68 be
       0.5637629 -0.0874082 -0.12617923 -0.22681324
0000c0 29 35 68 3d ec 3f 40 3d 43 ef 99 bd e8 04 84 bd
       0.056691322 0.04693596 -0.07516339 -0.06446248
0000d0 a6 53 ef bd 4e 92 c0 3e 8a 92 b8 3e 83 1a bc 3e
       -0.116858765 0.37611622 0.360493 0.36738977
0000e0 d9 82 f0 bd fe a3 7a 3e a1 98 17 3f e4 a1 23 3e
       -0.11743707 0.2447662 0.5921727 0.15979725
0000f0 bc 66 05 3c e3 10 99 be b6 a7 10 bd 8f 77 06 3a
       0.00814217 -0.29895696 -0.03531619 0.000512951

fc3.weight f4 [4, 64]
000000 77 a0 3f 3d ac 00 c8 be 18 f6 54 3e 2a 01 03 3f
       0.04678389 -0.39063013 0.20797002 0.5117365
000010 4e 1c 1e 3e 9b c0 76 3e b7 5c 94 3e e0 dc 66 3e
       0.15440485 0.2409691 0.28976986 0.22545195
000020 40 95 94 3e 2f 40 d4 3e 9d 7c 0e 3f a8 7e c7 3d
       0.2902012 0.41455218 0.55658895 0.09740955
000030 71 58 f7 3e 9b a9 46 3e 88 e0 a9 b9 41 2c e6 3d
       0.48309663 0.19400637 -0.0003240148 0.112389095
000040 48 ee bf bf 14 21 00 3e aa a6 b3 3e db 5e 44 3e
       -1.4994593 0.12512618 0.35088092 0.1917681
000050 97 db 21 3e 9d 27 05 3f e0 71 2b 3e af c3 ba 3d
       0.15806423 0.5201357 0.16742659 0.09119355
000060 7f 1d 5e 3d c5 e9 b8 bf 78 a7 83 3e 2f 87 b0 3e
       0.05422735 -1.4446341 0.25713706 0.34478137
000070 82 ec 7b 3e d8 1a 17 be a3 2e b0 bf 98 15 7b 3e
       0.2460194 -0.14756334 -1.3764232 0.24519956
000080 64 e5 c0 3e e4 4a df 3e 2e 25 58 be 35 f6 b1 bf
       0.3767501 0.43611825 -0.21107933 -1.3903261
000090 e8 d9 99 be 34 4f ff 3d f0 fc 3d 3d 88 a4 e0 3d
       -0.30049062 0.12466279 0.046383798 0.10968882
0000a0 07 de 3b 3d 25 5b 72 bf 82 da c8 bf 8b 35 69 3e
       0.04586604 -0.94670326 -1.5691683 0.22774331
0000b0 63 8c c5 3d f6 d0 5b be fa e3 ef be 11 63 dd bf
       0.09645917 -0.21466431 -0.4685362 -1.7295858
0000c0 03 dc 96 bc 22 10 12 bc 53 aa bd 3e cf c6 c6 3e
       -0.018415457 -0.008914979 0.3704401 0.38823554
0000d0 78 a8 c5 3e 92 f1 ce 3d 17 fd 1f 3d 46 d3 70 3d
       0.38605094 0.1010467 0.039059725 0.058795236
0000e0 7d 16 9d bf 41 04 9a 3d 5a de 1e 3e 2c cb 8e 3d
       -1.2272488 0.075203426 0.15514508 0.06972346
0000f0 d6 c1 ad 3d 00 4e f0 bf 8b a1 17 3e c4 84 28 3e
       0.08484237 -1.8773804 0.14807718 0.16456896
000100 f0 31 1c 3f 8c e0 78 bd 33 ab 4e 3e 82 7e 3f 3e
       0.610137 -0.06076102 0.20182495 0.18700603
000110 92 39 3d 3e 5a 74 54 3e 9d 65 9d 3e 71 9f 7e 3e
       0.18478993 0.2074751 0.30741587 0.2486551
000120 aa c9 89 3e 2f 19 07 3f 5f ae 8f bd 96 18 0b 3e
       0.2691167 0.527728 -0.070156805 0.13583598
000130 1e 87 b9 3e e3 dc 21 3e 09 b9 16 bc 05 f3 33 3e
       0.362359 0.15806918 -0.009199389 0.17573173
000140 c4 c8 04 bf 2e eb 19 3e 57 43 81 3e 63 c9 f6 3c
       -0.51868844 0.1503112 0.2524669 0.030125326
000150 b8 35 32 3e 5f e0 01 be 24 79 c5 3d e1 4a 7f 3d
       0.17403305 -0.12683247 0.09642246 0.06232727
000160 00 37 41 be 61 73 ab bd aa 61 7c 3e 1e 4b 7f be
       -0.18868637 -0.08371616 0.24646631 -0.24930999
000170 ba 9d 65 3e 16 45 9f bd 15 bf ed be bf 48 2e 3e
       0.22423449 -0.07776849 -0.46434847 0.17019938
000180 a1 bb 7a bf 9d 6e 9c 3e f5 ea 57 be dd 75 9b be
       -0.9794255 0.3055314 -0.21085723 -0.3036336
000190 11 24 0d be ee 45 b4 3d 69 23 fb 3d 53 fe e7 3d
       -0.1378329 0.088024005 0.12262613 0.11327805
0001a0 4c 99 fd 3e 38 ca dc be cc 72 31 bf 5d 3f 93 3c
       0.4953102 -0.4312303 -0.6931579 0.01797455
0001b0 79 38 53 3e d6 77 b1 be 94 f1 7d 3e bf d4 7f be
       0.20627011 -0.3466174 0.24799186 -0.249835
0001c0 c5 c3 b0 3d 83 f9 01 3d 11 9e 04 3f 03 88 8c 3e
       0.0863109 0.031732094 0.5180369 0.2744752
0001d0 39 19 e0 3e 91 c3 12 3e dc 4a b9 3d da 45 13 3c
       0.43769243 0.14332415 0.090474814 0.008988822
0001e0 e2 e6 c0 3d 84 1a 31 3d b8 53 3e 3e 2c 0c 71 3d
       0.094190374 0.043238178 0.18586624 0.0588495
0001f0 4d d8 88 3d 7f da 43 bc 36 69 3c 3e 65 c8 1f 3e
       0.06681881 -0.011953949 0.1839951 0.15603788
000200 d5 62 63 bf 54 f3 8c 3e 62 68 56 3e b7 d9 5e 3f
       -0.8882268 0.27529395 0.20938256 0.87050956
000210 c5 c0 80 3e 03 d3 2d 3e cd ef 0b 3e b8 1c ca 3e
       0.2514707 0.16975026 0.13665695 0.39475036
000220 f4 86 bd 3d 03 ce 6d bf 23 af cb 3e 91 f1 c3 bc
       0.09254256 -0.92892474 0.39782056 -0.023918899
000230 72 1f 5e bf fe d8 9d bd 8d c0 bd 3d 6d 8a cb 3e
       -0.8676673 -0.077074036 0.09265242 0.39754048
000240 c9 18 98 bf 01 7d ee 3d 2c d2 90 3e 58 e7 aa bf
       -1.1882564 0.11644936 0.28285348 -1.335185
000250 75 07 9d 3d 37 a6 68 3d 8c d4 5c 3e 1e cc 87 be
       0.07667438 0.05679914 0.21565455 -0.26522917
000260 af c1 14 be a5 eb e8 3c 72 82 78 3e 1b 00 01 3f
       -0.1452701 0.028432677 0.24268511 0.50390786
000270 be e8 8d bf 5e 19 4c bd 1b 64 c2 3e 8d 2d ed 3d
       -1.1086652 -0.04982888 0.37967 0.11580954
000280 e9 ad 78 bf 2f 74 a6 3d 9f b4 d8 bf 4c 93 32 bf
       -0.97140366 0.08127629 -1.6930121 -0.6975601
000290 81 06 b5 bd a7 00 2f 3e b4 76 d6 3d b0 5f 4b 3d
       -0.08839131 0.17090093 0.104718596 0.0496518
0002a0 08 16 47 3f fd b3 08 bf f1 b6 a3 be 16 43 89 bc
       0.7776799 -0.5339964 -0.3197551 -0.016755622
0002b0 2b 33 12 3e a3 fe cd bd cd 22 f7 3e 0b ff 8c bf
       0.14277332 -0.10058334 0.48268738 -1.1015333
0002c0 b7 61 d9 3d ea aa 7c 3e e5 b3 16 3f 65 9b 89 3e
       0.10614341 0.24674574 0.5886825 0.2687637
0002d0 eb 22 55 3e ae 3b 19 3e 5e c2 04 be 3e e0 0f 3e
       0.20814101 0.14964172 -0.1296477 0.14050385
0002e0 7a 27 b3 be 3d d5 3e 3e 53 88 6d 3e b4 9e 34 3d
       -0.34991056 0.18636031 0.23196535 0.044096664
0002f0 76 64 b8 3e 58 52 65 be 06 3e 78 3e 68 92 cd 3c
       0.36014146 -0.22394693 0.2424241 0.025094226
000300 f0 88 7a 3f 27 e6 ad bf ea fa 34 3e 4d 50 a0 3f
       0.978652 -1.3585862 0.17673841 1.2524506
000310 1a ef b8 3d ca bd 60 3d b8 71 f3 3d 71 4b ae 3e
       0.0902998 0.054868497 0.118869245 0.34041932
000320 cc fd 40 bf 98 1e fc 3d d0 1b a1 bf bd 3a 06 3e
       -0.75387263 0.12310523 -1.2586613 0.13108344
000330 ae e0 15 3f 75 19 86 bd a5 22 4a 3e 8d 16 23 3e
       0.5854596 -0.06547824 0.19739778 0.15926571
000340 b8 f6 5c be 8d ac 4c 3e 05 81 20 3e b5 a3 4d 3e
       -0.2157849 0.19987698 0.15674217 0.2008198
000350 a1 77 40 3e 47 70 5c 3f aa ed 83 3e 0e 6d 5a 3e
       0.18795635 0.8610882 0.2576726 0.21330664
000360 cf 95 f5 bf 24 6e 21 bf 32 b8 5d 3e f2 6a 10 3f
       -1.9186343 -0.63058686 0.21652296 0.56413186
000370 b1 7f f0 3e 0c ac ba bb ab 92 73 bf 37 e7 64 3e
       0.4697242 -0.005696779 -0.9514567 0.22353826
000380 89 87 95 3e 15 33 ed 3e e0 0b 19 3e c9 ee 72 bf
       0.29204968 0.46328035 0.14945936 -0.9489561
000390 f1 73 d9 bd a3 92 2a 3d 3c e5 b0 bf 91 16 26 3e
       -0.10617817 0.04164375 -1.3819957 0.16219546
0003a0 c9 bc 29 3f 0e 98 7d be 50 92 b1 be 77 19 8f bf
       0.6630369 -0.24765036 -0.3468194 -1.1179646
0003b0 b7 9e 65 3e e3 83 00 bf 12 51 a5 be af 6d 48 3e
       0.22423826 -0.50201243 -0.32288414 0.19573091
0003c0 c1 39 ff be 58 68 8c 3d 2d 74 71 be 7f e0 d8 3e
       -0.4984875 0.068558395 -0.23579474 0.42358777
0003d0 f3 38 23 3f 50 f8 67 ba 15 7c cb 3d 60 81 29 3e
       0.6375877 -0.0008848952 0.09935776 0.16553259
0003e0 2f 87 0b 3e fa f8 e6 3d a1 36 c9 3d f8 47 1a be
       0.13625787 0.11277957 0.09824873 -0.15066516
0003f0 13 c6 8c 3e da 91 df 3d 11 6f 96 3d 64 12 40 3e
       0.2749487 0.10916491 0.07345403 0.18757015

fc3.bias f4 [4]
000000 67 af c7 3e 39 90 7b 3e 37 5d db 3e f7 41 d2 3e
       0.3900101 0.24566735 0.42844555 0.41065952
